UI/delta-GRU_MFCC_normalized(RMS)_BGN-7db_0.6sec_HalfLabel0-insert[0,4]_low-FA.pt (torch, 49958 bytes, 27 tensors)

conv.0.weight f4 [26, 13, 15]
00000000: 3259 b03e c543 f33e c535 183f b47e 213f
00000010: c811 193f f24b 043f f68c df3e d482 f03e
00000020: fc84 853e db86 3e3e f4dd 893d ed28 5a3d
00000030: 5f02 cebd e015 9f3c 94d1 8cbc 2908 9f3e
00000040: 95f2 bd3e 0318 ae3e 5875 d63e 14f2 903e
00000050: 62a7 243e ded3 733e 1113 223e 2130 863e
00000060: 2e42 743e 76d2 083e 3e28 763d 974e e3bc
00000070: 013e 08be e0e6 0fbe 02a2 543e 9b13 b63d
00000080: 9197 8abb 03e0 2dbd 1740 bfbc ab62 9dbd
00000090: 14f9 49be b129 87bd 3324 09bd 6b96 0bbc
000000a0: 13aa c03d 8ced 4b3d b1e6 1a3d ffa6 9ebd
000000b0: 41dd 00be da3f 8c3e 0fdb 103e 6537 283d
000000c0: 0db3 913d 5d25 653e 6d5e 4c3e 37de 253d
000000d0: b702 e93d 1def 143e 509f c63c 4de0 1ebe
000000e0: cb14 8fbd 1976 443d d92a be3d 1254 8abd
000000f0: 8bd5 5abd 5f32 93bc e83f 74be a5d4 6bbe
00000100: 4755 35be dd5f 0ebe 8184 14be d88d b3bd
00000110: 7122 e93c 796a d43c 07d4 853d 2ef3 133e
00000120: 5467 1e3e 563f 713d 632c b4ba c862 ea3d
00000130: 6329 8bbd 7b70 12be 25ae fdbd 4c6f 12be
00000140: 7e1b bdbe ad9e 98be 4c3a 0dbe 9227 d9bd
00000150: e2dc 9bbd c11d 443d 0d1a 2b3d 8e77 90bd
00000160: 17ce b23d 901e 0c3e bef6 583e 5f86 c73d
00000170: bbbb 683e 6980 f03d 90f6 6b3d 6d84 cebd
00000180: 0435 793b 8876 28be d8a3 4bbe 862a 85be
00000190: 60d1 1cbe 23f8 a43c bb76 92bd c6cb 44be
000001a0: 57e6 90be 215a 023e 2848 0b3e 3c62 80bd
000001b0: 1a0a 0a3d 5f86 95bd 0423 a33c f42f e13d
000001c0: 185c 4b3d 7f59 adbe f014 b7be ca3e 7bbe
000001d0: c4d9 6fbd 6289 3ebe 2804 6abe 0412 66be
000001e0: e7f6 1f3c 29bb fe3b 2bd3 c5bc 7ac9 d73d
000001f0: 23bd 0c3d 113d 683d bcb9 eebd beb4 15be
00000200: 614e 37be 7b2a 81be 99de 61be 7868 87be
00000210: 927e 20be e535 7ebe 08a8 22be 4f12 133e
00000220: 5b39 5e3c a7e5 40bb d4ae ccbc 3ac4 ffbd
00000230: 5d36 103d 2616 7abd 9f8b c6bd 2f66 acbe
00000240: 7b9b 76be d2cd a7bd 03a4 b3bd d5e4 34be
00000250: c0de 12be 089d 49be ad3c 613c 7a4d 403d
00000260: 07b6 0f3d 8d28 17be ad22 52be b6e4 12be
00000270: 2d17 fabd 3a84 20be 4f58 e7bd 65c8 44bc
00000280: 8f25 0abd 9e31 cbbd bb79 ff3d 3122 8e3e
00000290: 7484 bc3d 59de 68be 0730 d4be 884b b8be
000002a0: 4971 b7be 8676 fbbe 67fa 51be 0a1e 09be
000002b0: 750a afbe 61d9 fabe 0dd2 7dbe 0f39 81be
000002c0: ceb0 83be 0c1e a4be 349c 89bd 793a f33d
000002d0: cb92 00be ede4 45be bd8d bb3d 9b59 5abe
000002e0: 4253 2ebe 8d2b a2be 20b6 4a3e d457 4d3d
000002f0: cc50 27bd 7b53 26be cf00 0c3e b244 02be
00000300: 9e16 2dbc db05 0a3e 314c da3e 1fd5 9a3e
00000310: 9b3d b93e 6fe0 9f3e 2f02 933e 6071 493e
00000320: f8ea 223e e2e1 0c3e b759 c03d 339a 223d
00000330: 0c71 d9bd 7f5c 38be 2451 51be cbd2 8dbe
00000340: d3ed 53be 2a83 8ebe f1a6 8b3d 6bf9 5c3d
00000350: 5dd4 b53e 8c32 bf3e 47f9 473e d334 143e
00000360: 8f49 ac3e 341e b53e 5115 293e c9cb 153e
00000370: 36ea 1d3e 3c47 a33d 54df e1bd ce76 32be
00000380: dd53 cbbd c0fb 01bf 738d 90be e903 d8bd
00000390: c593 a3bd c9ba 77be 296a 66be 4c4d 99bc
000003a0: aa08 fe3c e8d1 5f3c 4692 f23d 72a3 163e
000003b0: 4911 7c3d 117f 2f3c a254 7ebd e205 b4bc
000003c0: 8bfc 893d 2c09 503d eab7 a0bc 2da6 06bd
000003d0: 7686 89be 3af8 a6be aa2f 62be d496 97be
000003e0: dc58 b5be a7f7 99be c7e8 8dbe da1b 60be
000003f0: 604b 75be 7aed 43be d357 44be 0185 0c3e
0.3444305 0.47512642 0.59457046 0.6308396 0.5979276 0.51678383 0.43662232 0.46974814
0.26078022 0.18606131 0.06731787 0.053261686 -0.10059046 0.01941961 -0.017189778 0.31060913
0.37099138 0.34002694 0.418864 0.2830969 0.16079476 0.2381129 0.15827586 0.26208594
0.2385337 0.13361534 0.06009697 -0.027747435 -0.13304903 -0.14052916 0.20764926 0.08890458
-0.004229494 -0.042449962 -0.02334599 -0.07684835 -0.19723922 -0.06599749 -0.033481788 -0.008519749
0.09407439 0.04978709 0.03781766 -0.07746696 -0.12584402 0.27392465 0.14146064 0.041068453
0.07114229 0.22377534 0.19957896 0.040495124 0.11377471 0.1454434 0.024245888 -0.15515251
-0.06986388 0.04796419 0.09285516 -0.067543164 -0.053426307 -0.017968355 -0.23852503 -0.23030336
-0.17708312 -0.13903756 -0.14503671 -0.08767289 0.028458806 0.025929676 0.06534582 0.14448234
0.15469104 0.058898292 -0.0013746138 0.11444622 -0.06795003 -0.1430072 -0.12386731 -0.14300269
-0.36935037 -0.2980856 -0.1379177 -0.106032506 -0.076104894 0.047879938 0.04177289 -0.07054053
0.08730715 0.13683534 0.21187875 0.09742426 0.22727863 0.11743242 0.057608187 -0.10083852
0.0038025985 -0.16451466 -0.1988672 -0.26009005 -0.15314245 0.020137852 -0.07151552 -0.19218358
-0.28300735 0.12729694 0.13601744 -0.06268737 0.03370104 -0.0730102 0.019914158 0.109954745
0.049648374 -0.33857343 -0.35758162 -0.24535671 -0.058557287 -0.18607095 -0.22853148 -0.2246781
0.009763456 0.007773776 -0.024148544 0.105364755 0.034360062 0.056698862 -0.1165652 -0.14619729
-0.17900993 -0.25227723 -0.2205757 -0.2644689 -0.15673283 -0.24825247 -0.15884411 0.14362453
0.013563479 -0.0029433758 -0.024985708 -0.12488599 0.035208095 -0.06105628 -0.09694599 -0.3367171
-0.24082749 -0.08193554 -0.08771517 -0.17665417 -0.14342785 -0.19688809 0.013747376 0.046948887
0.035085704 -0.14761563 -0.2052104 -0.14345059 -0.12211452 -0.1567544 -0.112961404 -0.012010668
-0.033727225 -0.09921573 0.1247439 0.2776046 0.09204951 -0.22741069 -0.41442892 -0.35995126
-0.35828617 -0.49113864 -0.20505677 -0.13390365 -0.34187666 -0.48993972 -0.2478716 -0.25238845
-0.2572083 -0.32054174 -0.067192465 0.11876387 -0.12555997 -0.1932561 0.09157894 -0.21323244
-0.17023948 -0.31673852 0.19796038 0.050132588 -0.04084854 -0.16242783 0.13672183 -0.12721518
-0.010564474 0.13478796 0.42636254 0.30240723 0.36179814 0.31225917 0.28712603 0.19672155
0.15909946 0.13758042 0.09392112 0.039697837 -0.10617265 -0.18004034 -0.20441109 -0.27699885
-0.20696191 -0.27834445 0.06818951 0.0539488 0.35513583 0.37343252 0.19528686 0.14473276
0.3364987 0.35374606 0.16512038 0.14628519 0.15421376 0.07972571 -0.110289246 -0.17428133
-0.09928105 -0.50774765 -0.28232917 -0.10547621 -0.07987169 -0.24192347 -0.22501434 -0.018713616
0.03100999 0.013660885 0.11844306 0.14710787 0.061539922 0.010711447 -0.06209243 -0.021975461
0.06737622 0.050789997 -0.019618947 -0.03287332 -0.26860398 -0.32611257 -0.22088495 -0.2960726
-0.35419357 -0.30071756 -0.27716658 -0.21885625 -0.23954535 -0.19133559 -0.19174127 0.13722612

conv.0.bias f4 [26]
00000000: 3e5b 2abb 14a6 233d 8725 983c b1a1 453d
00000010: b4d7 1bbd 848e c83c 0590 1ebd e54a 5abc
00000020: c7b7 1dbc 5f80 43bd 326a aa3c 5025 78bd
00000030: a6b2 25bd 0865 f9bc 5b10 a93b af2d 04bd
00000040: 9f98 a1bc af8b d93c 1720 6c3d ab55 69bd
00000050: bb20 8639 e5ce 523d 4162 fbbb 68ef be3c
00000060: f427 803d c959 8cbc
-0.0025994326 0.039953306 0.018572582 0.048249904 -0.038047507 0.02448202 -0.038711566 -0.01332352
-0.009626335 -0.047729846 0.020802591 -0.06058246 -0.040453576 -0.030443683 0.0051594204 -0.03227013
-0.019726096 0.026555864 0.05764779 -0.056966465 0.00025582858 0.05146684 -0.007671625 0.023307517
0.062576205 -0.017132657

conv.1.weight f4 [26]
00000000: 6f1b fd3e c9da 1b3f 14b9 fa3e df4f e33e
00000010: 0a2d 8e3e dc51 e83e 9814 c43e e802 183f
00000020: 689b 233e 9ebf 1a3f 10be b33e db6f 0f3f
00000030: a000 b53e 9555 bb3e 0a19 163f 08ac 1a3f
00000040: b640 1d3f 8995 bf3e c308 233f 6dea 103f
00000050: 314d 003f 0fa7 0c3f 1363 013f a81e a13e
00000060: 3dde f23e db59 b63e
0.49434993 0.60880715 0.48969328 0.44396874 0.27768737 0.45374954 0.38296962 0.59379435
0.15977252 0.60448635 0.35105944 0.5603005 0.3535204 0.3658873 0.58631957 0.6041875
0.61426866 0.37418774 0.63685244 0.56607705 0.50117785 0.5494241 0.505418 0.314687
0.4743518 0.3561543

conv.1.bias f4 [26]
00000000: 9d18 8abf a9d5 02bf ec85 0cbf 834f 03bf
00000010: b677 e3be 3b18 9cbe 4c05 5dbf 9ac3 22bf
00000020: 131d 20bf 5185 d7be 10f0 a6be 5d0a 0fbf
00000030: 568f c6bd 8307 5ebe 4e61 1abf 5a43 83bf
00000040: 671f 25bf 6531 5fbe 1ade 73be 0650 0dbf
00000050: a774 39bf 8898 7cbf 855a 77be cb22 b5bd
00000060: eb1b 59bf ad1e 83be
-1.0788761 -0.5110727 -0.5489185 -0.512932 -0.4442727 -0.30487236 -0.8633621 -0.63579714
-0.62544364 -0.420939 -0.32605028 -0.5587519 -0.09695308 -0.21682553 -0.60304725 -1.0254929
-0.6450104 -0.21796186 -0.23815194 -0.5520023 -0.7244362 -0.98670244 -0.24155624 -0.08844527
-0.84808224 -0.2560934

conv.1.running_mean f4 [26]
00000000: 38ae 8043 f169 6142 2e82 25c3 aa9e 1243
00000010: d806 6dc1 faf9 2243 835b 8d42 807c 2843
00000020: b000 0ac2 8f63 e8c2 a818 5143 275f 4343
00000030: ddb4 bb43 1e40 b843 8046 8743 403b 9442
00000040: 75b4 1743 6afd 9543 d6e5 0dc3 9eeb 0f44
00000050: 32e3 3b42 9528 2043 e592 0a43 9d45 4943
00000060: 4945 9d43 837c a643
257.36108 56.35346 -165.50851 146.61978 -14.814171 162.97647 70.678734 168.48633
-34.50067 -116.19445 209.09631 195.37169 375.413 368.50092 270.55078 74.11572
151.70491 299.9798 -141.8978 575.6815 46.97187 160.15852 138.5738 201.27193
314.5413 332.97275

conv.1.running_var f4 [26]
00000000: 4edb 8d45 3c33 e344 93ef 0f45 fa0b e044
00000010: eaf9 7344 6ea0 9f44 5696 e544 5447 ef44
00000020: f606 6844 5ef3 3445 94bf a344 1f13 0b45
00000030: 1a91 2645 2250 f544 0018 e944 1750 2445
00000040: 1509 0945 b3f0 bf44 bf42 0845 d4c6 3145
00000050: fb55 ef44 e0a5 4045 2e51 4e45 57b2 5445
00000060: f453 0245 e683 c144
4539.413 1817.6011 2302.9734 1792.3743 975.9049 1277.0134 1836.698 1914.229
928.10876 2895.2104 1309.9868 2225.195 2665.0688 1962.5042 1864.75 2629.0056
2192.5676 1535.5219 2180.1716 2844.4268 1914.6869 3082.3672 3301.0737 3403.1462
2085.247 1548.1218

biRNN.weight_ih_l0 f4 [39, 26]
00000000: cf75 9ebc 33af 29be 8e43 3cbf 8e16 593e
00000010: 31fc 81be d3cd c83e 0c05 583e bdc0 edbe
00000020: 4900 c3bc e301 babe 6379 8a3e bf80 8fbe
00000030: ed02 d73e 72f7 4ebd 6c5e 60be 5e76 27be
00000040: cb43 d03d 636c efbe 34ee 113f cc42 073f
00000050: 4e0b 9e3e 8358 a43e 1d07 083f 4014 41be
00000060: 6413 7d3d 3590 4c3e c2f9 b8bd 0614 b7bd
00000070: d200 1c3e 830a f0be 9531 2dbe d051 08bf
00000080: 0f97 193f fc81 f13c efb7 1b3e eed7 aabe
00000090: 2280 52be 2934 a9be fa1c 55be a97a 72be
000000a0: 5195 89be 44e4 a43c b249 253e 9be5 13be
000000b0: d726 4a3d bcfa cc3d 3fc4 fe3d c8b5 eb3c
000000c0: a281 433e af40 c93e 2937 dbbe 2c48 6c3c
000000d0: 36f3 d23e e08a 8bbd 75af bbbd 61a4 633e
000000e0: 9205 0abd 9777 0d3f 351e 9f3e 4492 a5be
000000f0: d454 86be 07da 823e 7bea cf3d 6612 913d
00000100: d9ee 9fbe bdb8 cf3e baca d9bd 7076 bfbe
00000110: 87de ed3d 6b8c 943e e109 7e3e f4c6 113f
00000120: 5f87 12be f3e8 46be fb22 d63d 1425 263f
00000130: abca a1be 8a99 083f eb7e cdbd 4206 2c3e
00000140: 4da2 babe 0225 093d 32c7 d3bc 8d53 f73e
00000150: e0ef dd3e f7ef 8e3e d081 4bbf c6b1 9d3d
00000160: 5f19 25bd 034f 5e3e ec0a c5be 8dbf 713e
00000170: 2d84 29be 51fd 693c 29ec 4f3d 6771 033f
00000180: 9c9b 7f3e 0452 c43e 3ad8 9a3d 94cc 20be
00000190: eaeb afbd c209 20be 966b f63e 5043 dc3e
000001a0: 0a34 cc3e 85c5 b33d a9f3 94bd 385e 83bd
000001b0: 9ac6 6c3e 085b fa3c 1934 473f 7c49 4b3e
000001c0: 87a4 153f 6f32 263e c6d0 253e 44c0 283d
000001d0: 5ca9 6d3e d0df 2d3e 7207 623d 97c9 f23d
000001e0: 1bcf 193f 23c8 5f3e 7074 f13e cba6 113f
000001f0: ff87 623e fbd5 233e 5c09 843d 89d9 78bd
00000200: cb27 953e e751 9c3e 0c49 08bf 6dc7 5bbc
00000210: dbbb dabd 74eb ac3e 88db d83e ec66 273f
00000220: 9b60 573e 4e81 b13e ed88 3e3f 88e2 843e
00000230: 864c d03c a609 9abe 61cf 61bf 16e3 2cbf
00000240: 6db9 2abf 5df3 833e 8252 4f3e 4702 553f
00000250: 1f02 093f 4b94 df3c 788e 22be f1f1 ac3d
00000260: 0f15 eb3e d1b0 823f 1ea9 a2be f5c1 9ebe
00000270: 190c 40bf 0361 26bf 286f 4bbe 388a 72bf
00000280: 828c 08be caf5 f7bd d005 10bf b40d ecbe
00000290: 8d1e 32bc 735d f33e dd3c ff3d a164 d4be
000002a0: cb98 4dbf e965 36be 5420 ff3d 9448 1cbe
000002b0: 5b61 ccbe 15b7 13bf fd84 25bf 3b24 aa3d
000002c0: fef2 50bf 08e3 4bbe ef60 45bd a014 943e
000002d0: afe0 3dbe 1d26 a1bd 0bf9 883f 9849 2a3f
000002e0: 834a 463f 174c 9fbe be63 f4be 19e9 c63d
000002f0: 21a3 e83e 3844 98be 235a 023f 4d33 633e
00000300: 86a9 623e a91d b93e 7d7d c13e 9d93 753e
00000310: 8791 a43e 7f8a 8f3e bb6d 573e eb8f efbd
00000320: d525 7e3e fb5d 33bb 7149 9e3e 048b 0a3e
00000330: b0f4 2dbd 2607 a23d 8f32 953e 8d58 523e
00000340: 1111 073f 57b5 b03e c16c 103e d162 4e3e
00000350: ad25 fb3e eed9 c63e 15b0 fb3d 8816 fe3e
00000360: abc1 1b3f 416e 1a3e 171d 07bd d903 ecbe
00000370: d261 0fbe 0925 57bd b70e 9d3c 2ce2 8bbc
00000380: 940c ae3e db34 663f 477b fabd 7f26 c13d
00000390: 6ad5 d43e a21b 343f 2f13 bc3e 0ae1 53be
000003a0: 0c83 9f3e 581a c4bc 3d9a 09bf 00eb 083b
000003b0: 56b8 0c3e 6b03 5fbf 9742 b43e 7d34 f2be
000003c0: 8d45 a6be 7266 a83d e23e 713f 5dfc 9c3e
000003d0: 0673 a8be 8737 1dbf ed35 65bf 7217 fabe
000003e0: 17dc c8be 9ab3 1fbe 2fda 43be b210 08be
000003f0: 60cf 873e 217c 42b9 c7cd f6be 4796 9abe
-0.019343285 -0.1657074 -0.7354058 0.2120001 -0.2538772 0.3921953 0.21095675 -0.4643611
-0.023803847 -0.36329564 0.27045736 -0.28027913 0.4199442 -0.05052895 -0.21911019 -0.16353747
0.101691805 -0.4676238 0.57004094 0.528363 0.30868 0.3209878 0.53135854 -0.18855381
0.06178607 0.19976886 -0.090320125 -0.08939366 0.15234688 -0.4688302 -0.16913445 -0.53249836
0.5999612 0.029480927 0.15206884 -0.33367866 -0.20556691 -0.33047608 -0.20811835 -0.23679604
-0.26871732 0.020128377 0.16141394 -0.14443056 0.049353447 0.10008761 0.12439775 0.028773203
0.1909242 0.39307162 -0.4281552 0.014421504 0.4120118 -0.06813598 -0.09164325 0.22230674
-0.03369672 0.55260605 0.31077734 -0.32338154 -0.26236594 0.25556967 0.101521455 0.07083587
-0.31236914 0.40570632 -0.1063437 -0.37395048 0.11614709 0.2901338 0.24808456 0.56944203
-0.14309452 -0.194248 0.10455891 0.64900327 -0.31599936 0.5335928 -0.10033973 0.16799262
-0.3645195 0.03348256 -0.02585182 0.48305932 0.43347073 0.27917454 -0.79494953 0.07699923
-0.0403074 0.21709828 -0.38484895 0.23608227 -0.16554327 0.014281587 0.05076233 0.51344913
0.24961704 0.38343823 0.07560773 -0.1570304 -0.08589919 -0.15628722 0.48128957 0.43020105
0.39883453 0.08777908 -0.07273037 -0.06414455 0.23122635 0.030560985 0.7781387 0.19852251
0.58454174 0.16230176 0.16192922 0.041198984 0.23209137 0.16979909 0.05518288 0.118548565
0.6008164 0.2185369 0.47159147 0.5689513 0.22122191 0.15999596 0.06447098 -0.060754333
0.29131922 0.30531237 -0.5323646 -0.013414246 -0.10680362 0.33773386 0.4235499 0.6539142
0.21032946 0.34668964 0.7442768 0.2595408 0.025427114 -0.30085486 -0.8820706 -0.67534006
-0.6668919 0.2577161 0.20246318 0.832066 0.5351886 0.027292391 -0.1587466 0.08444584
0.45914504 1.021021 -0.3176965 -0.31007352 -0.7501846 -0.6499178 -0.19866621 -0.94742155
-0.1333485 -0.121074274 -0.5625887 -0.46104205 -0.010871542 0.47532234 0.124627806 -0.41483024
-0.8031127 -0.17812313 0.12457338 -0.15262061 -0.39918026 -0.57701236 -0.6465605 0.08307692
-0.81620777 -0.19910824 -0.048188146 0.28921986 -0.18542741 -0.07868598 1.0701002 0.66518545
0.77457446 -0.3111274 -0.47732347 0.097124286 0.45436957 -0.29739547 0.5091879 0.22187538
0.2213498 0.3615544 0.37791052 0.23982091 0.3214228 0.28035352 0.21037953 -0.11697372
0.2481912 -0.002736925 0.30915406 0.13529593 -0.04246968 0.0791152 0.29140136 0.20541592
0.52760416 0.3451335 0.14103986 0.20154883 0.49052182 0.38838142 0.12289444 0.49626565
0.6084239 0.15081121 -0.032986727 -0.46096686 -0.14002159 -0.052525554 0.019172056 -0.01707562
0.3399397 0.899244 -0.122305445 0.09431171 0.41569072 0.70354664 0.36733386 -0.20691314
0.31154668 -0.023938343 -0.53750974 0.0020892024 0.13742194 -0.8711459 0.35207054 -0.4730567
-0.32474938 0.08222665 0.94236577 0.30661288 -0.32900256 -0.61412853 -0.8953541 -0.48846012
-0.39230415 -0.15595856 -0.19126199 -0.13287619 0.26525402 -0.00018547523 -0.4820387 -0.30192778

biRNN.weight_hh_l0 f4 [39, 13]
00000000: b482 383e 9c6e ec3d 18b1 c53e 6970 09bf
00000010: bb32 69bf 17a8 2b3f 502a c13e 2892 3c3e
00000020: 5c96 333d 8f2d 653d 6506 bb3d 1abb e53d
00000030: 1697 be3e 5758 f9be 0204 d5be 2de9 91be
00000040: ca96 55be 5171 2fbf 382a b23e 327b 3ebe
00000050: 77dc 9bbf ed89 7fbf 0d31 233e 56da 1ebe
00000060: acc3 023e 6045 983e 5e53 a8bd 3e38 46be
00000070: 31c9 20bf ebf1 963e afa2 24bf a908 d93e
00000080: d179 873e 640d 60be 4653 0cbf a5a2 013d
00000090: d32f 8ebe 1b7f 133f 485b c33d df8b 103e
000000a0: aba4 99be ceda 87bd 5bbd b1bd 13e3 38be
000000b0: 7f6b 093e 6eb0 983d dea8 43bf d939 67bf
000000c0: ea42 473e 0e13 493e d05b de3e c81f ec3d
000000d0: 9140 7c3f ea39 183e 5ef9 983e dc50 0abf
000000e0: 7b69 3cbf 85f5 d1bd ecf2 133f df3e 62be
000000f0: ac6f 0e3f f533 103e 1021 60be cfb4 41be
00000100: f9c7 813d 27e0 98bd cbaf e8be 7d16 ebbd
00000110: f422 ae3e 12d3 113f 46e3 17be bbb6 a93d
00000120: 4ebb fa3e 78a8 b73e 7ecb c9be 9270 b13e
00000130: 4931 1dbe 48e0 70bd 08e1 21bf a129 8a3b
00000140: 7cc7 b43d b211 1abe 8093 abbe dbd0 f23e
00000150: 77e0 c7bd 7967 63be 38c6 c5be 2635 993f
00000160: 2756 2cbf cfba 35bf 9f2b febd d1bf a53f
00000170: 1ed4 86bd c726 643e a36c 90be 414c 86be
00000180: 1a7e a3bd f984 b43e ec02 66bf fdb6 f93c
00000190: c5f3 e5be e1f8 873b 72f5 8b3e 8b4b a43e
000001a0: 7a77 413f 6e0b 3b3f ccbc 353d eef9 c33d
000001b0: ecab 2f3f feb6 03bf 748d 2f3e a410 183f
000001c0: 0c51 093f 7b26 a5be 44ef 26be 7e9e 8dbe
000001d0: 57f1 47bc ac0f 143f c1cb 38be d1a7 e4be
000001e0: 04fe 9bb8 3b7a fe3e 561c 24bf 930d 893e
000001f0: a6ff bc3e c577 da3e 9511 03be b5d0 19bd
00000200: 6b33 5dbe 3b83 30bf d965 f83e ab4c 9cbc
00000210: 5342 9fbe 1724 04bf 4304 d6be bc53 3ebe
00000220: 51fe c73e d463 8fbd 0cd6 85be 9373 b53e
00000230: 5ef8 b93e 19bd f43e d033 1b3f 22c6 a73f
00000240: c9f4 1cbf 5b9e 0fbf 54c6 c63d 46fa b7bd
00000250: 1437 35bf 90ee 863e c7a4 6fbe dbfc eebe
00000260: 4a5e afbe d09a 933e 8a90 513e 3a3d 43bd
00000270: 2ed7 103e f1db 1f3f 1d68 913e 42d9 f83d
00000280: fc62 4f3e fe94 24be 6ba0 513f 9b13 683d
00000290: 84e9 973e 1d98 b9be b778 943e 9d55 633f
000002a0: f15e 753f 11cd 2c3f bf39 64be cf93 0abf
000002b0: 0d41 10bf 7e7d 783e b06d 4dbe 1503 9bbd
000002c0: 5ad8 8dbe fd6d 343e ef71 13bf ff17 1b3d
000002d0: 1ddf fd3e 6a00 e33b ed71 edbc 0d65 af3c
000002e0: e290 123e d532 883d bbc8 e63d a7f4 6ebe
000002f0: a7ac 403d b0ca acbe 6d90 65be 361b 3d3e
00000300: 1eca 303f c19a 0b3f 8b38 a63e e98e dabe
00000310: f9ec 45be 6e5b b0be 837c b53e d3af d53e
00000320: bca4 b8be c75a 023e f2b0 ae3e d0fa abbd
00000330: 8a31 bcbe 9760 d23e 3f85 633d 8c59 dabb
00000340: dee0 adbe ae43 14be 07f5 69be 5272 86be
00000350: cb60 bc3d 7abc 8b3d 0deb 683e d4dc eebd
00000360: 7773 e83d 04cd 783e 0e95 24be 17ef f43c
00000370: 973c 2abd 572b a93e bb4a 103f a74b aabe
00000380: 35bc d2be 21fb 0abf c4a8 a83e 7c36 c9bc
00000390: 5934 87be 7289 2dbe 103e 97bd 1a4b 493e
000003a0: d6a9 56be 071b 21bc 3422 f9be 2ea1 d73e
000003b0: b61e 9dbe 692c 0fbe f289 a3be 1bea d3bc
000003c0: 3ea3 b93e 6afe da3e 3a88 f83d 2c77 dfbe
000003d0: c491 723e 50d6 323e 19be 1cbf bb39 463e
000003e0: 7325 37bf 113e 4ebb 30e0 6d3e 9758 80bc
000003f0: 946d a33e 60e5 783e d291 94bd d8a4 26bf
0.1801861 0.115445346 0.38611674 -0.5368715 -0.91093034 0.6705336 0.37727594 0.18415129
0.043844566 0.05595165 0.09132079 0.112173274 0.37224644 -0.4870021 -0.4160462 -0.28498212
-0.20858303 -0.6853228 0.34797835 -0.18601683 -1.2176656 -0.99819833 0.1593668 -0.15512976
0.12769955 0.2974043 -0.08219026 -0.19357392 -0.62806994 0.29481444 -0.64310735 0.4238942
0.26460126 -0.21880108 -0.54814565 0.03164925 -0.27770862 0.5761582 0.09538895 0.14115857
-0.30008444 -0.066335306 -0.08678695 -0.18055372 0.13419913 0.07455526 -0.76429546 -0.90322644
0.1945912 0.19636175 0.43429422 0.11529499 0.9853602 0.14865842 0.29877752 -0.5402963
-0.7359845 -0.10251907 0.57792544 -0.22094296 0.5563915 0.1408232 -0.21887612 -0.18916629
0.0633697 -0.07464629 -0.4544662 -0.11478899 0.34011042 0.5696269 -0.14832792 0.08286806
0.48971027 0.3587072 -0.39413065 0.34656197 -0.15350832 -0.05880764 -0.63233995 0.0042163883
0.08827111 -0.15045813 -0.3351097 0.4742497 -0.0975961 -0.2220744 -0.3862779 1.1969345
-0.6731896 -0.7098817 -0.12410664 1.2949163 -0.06583427 0.22280417 -0.28207883 -0.26230052
-0.07983036 0.352577 -0.8984821 0.030482763 -0.44912544 0.0041495417 0.27335697 0.32088885
0.7557293 0.73064315 0.044369504 0.09569155 0.68621707 -0.514511 0.17143804 0.5940039
0.5363929 -0.3225592 -0.1630221 -0.27659982 -0.012203536 0.57836413 -0.18046476 -0.44659284
-7.43829e-05 0.4970263 -0.6410574 0.2676817 0.36913794 0.42669502 -0.12799676 -0.037552554
-0.21601646 -0.6895024 0.48515204 -0.019079527 -0.3110529 -0.5161757 -0.41800126 -0.1858663
0.39061216 -0.070014626 -0.26139867 0.3543974 0.36322302 0.4780052 0.60625935 1.310734
-0.6131101 -0.56101006 0.09705797 -0.08983283 -0.7078717 0.26353884 -0.23402701 -0.46677288
-0.34251624 0.2882905 0.20465294 -0.047665812 0.14144585 0.6244498 0.28399745 0.12150814
0.20252603 -0.16072461 0.81885403 0.056659322 0.29670346 -0.36248866 0.28998348 0.8880251
0.95847994 0.67500407 -0.22287653 -0.5413179 -0.5634926 0.24266621 -0.20061374 -0.07568947
-0.27704126 0.17620082 -0.57595724 0.03786468 0.49584284 0.0069275396 -0.028984988 0.02141049
0.14313081 0.066503204 0.11268755 -0.23335515 0.047039654 -0.33748388 -0.22418375 0.18467411
0.69058406 0.5453301 0.32465014 -0.42687157 -0.19328679 -0.34444755 0.35446557 0.41735706
-0.36063182 0.12729941 0.34119374 -0.08397448 -0.36756545 0.41089317 0.055546995 -0.006663507
-0.33960623 -0.14478943 -0.22847377 -0.26259094 0.09198149 0.068230584 0.22745915 -0.11663213
0.11350148 0.24296957 -0.16072485 0.029899163 -0.04156169 0.33040878 0.5636403 -0.33260843
-0.41159216 -0.5428944 0.32941258 -0.024562113 -0.26407126 -0.16946962 -0.07384884 0.19657555
-0.20963225 -0.009833104 -0.48658907 0.42115158 -0.30687493 -0.13981785 -0.3194118 -0.025868466
0.36257356 0.42772228 0.12135358 -0.43645608 0.23688418 0.17464566 -0.61227566 0.1935796
-0.7154152 -0.00314701 0.23230052 -0.015667243 0.3191954 0.2430625 -0.072543755 -0.6509528

biRNN.bias_ih_l0 f4 [39]
00000000: 4dac bf3e 670d 0abe 9314 bd3e 04f6 2b3f
00000010: ffeb f03e f2d6 833d c6e9 a0be 7927 993e
00000020: 5f88 59be 180a ca3e 88cb 243f f3e0 3c3f
00000030: 9cd7 d93d 14b8 093f 1d07 033e d0a3 f93e
00000040: d9af 303e c8b6 253f 38af 963e a115 023f
00000050: f131 4e3e 66df ac3e 4936 aa3e cd02 5a3f
00000060: a7e1 c33e f06e 093e cb4a b0be ae6d f03e
00000070: e83a 543d 85bd 9bbe 7342 5cbe eb60 233f
00000080: 0f56 813d 637f 14be c96c d2be a7aa 003f
00000090: 5f63 29bf 8675 95be e8aa 08bf
0.37436143 -0.13481675 0.3692976 0.67172265 0.4705505 0.06437482 -0.31428355 0.29912928
-0.21243428 0.39460826 0.64373064 0.73780745 0.10636827 0.53796506 0.12795682 0.48757792
0.1725458 0.6473203 0.29430556 0.50814253 0.20136239 0.3376419 0.3324454 0.85160524
0.38258097 0.13421226 -0.34432063 0.4695868 0.05181399 -0.3041803 -0.21509723 0.6381976
0.063152425 -0.14501719 -0.4109862 0.50260395 -0.66167253 -0.29191226 -0.5338578

biRNN.bias_hh_l0 f4 [39]
00000000: 9a4a eb3e f391 40bd d5d4 2d3f 75e0 383f
00000010: 4cbf a03e bc3b 8d3e 17f4 0fbf c7db 883e
00000020: 4b9c 22be d88a c33d 412b 0e3f 7dbb a93e
00000030: 85f3 f5bd dee3 053f 8273 a93e 957f 233e
00000040: 2ac6 043f c2e5 dd3e 1720 c83e 13b0 fc3e
00000050: b7fb 9e3e 5f8f 533e 7094 cc3e f4c0 e53e
00000060: 18a8 d73e f50e 583e c3e9 c6be b52b 35be
00000070: 5dc3 3c3e 428d b6be b700 2abf 8ac4 9d3e
00000080: 6501 94bd 545a 993d 3181 a8be 81da 91bb
00000090: 5379 3cbe e087 93bc 2145 f7bd
0.45955354 -0.047014188 0.6790288 0.72217494 0.31395948 0.27584636 -0.56231827 0.26730177
-0.15879934 0.09547967 0.5553475 0.33150855 -0.12009338 0.5230082 0.33095938 0.15966637
0.51864874 0.43339354 0.39086983 0.49353084 0.31051418 0.2066016 0.39957 0.44873774
0.42120433 0.21099456 -0.3885022 -0.17692454 0.184339 -0.35654646 -0.6640734 0.3081401
-0.072268285 0.07487932 -0.32911065 -0.0044510965 -0.18405657 -0.018009126 -0.12073732

biRNN.weight_ih_l0_reverse f4 [39, 26]
00000000: 602c c23e 5782 a8bb ce58 d9be a456 0c3f
00000010: de41 bcbe d872 8dbe 21c6 303e 9829 a5be
00000020: 1734 1b3e 6464 51be 9f20 b23e 06dd d43e
00000030: 75a9 43bd e7d9 ae3c 11b2 53bd f972 c0be
00000040: 6fe8 553d bbed 343d 8817 183e 7903 6e3e
00000050: 57f4 ff3d 2e78 043d 6312 923e 2676 febe
00000060: 73e4 03bd 2465 9dbd 1129 b9bc 4ca1 c6be
00000070: 127e d7be eb36 4b3f 8272 173e dd28 463d
00000080: 605b 673f f4ad acbe 1728 b6bf 6c7c 46be
00000090: a182 b93e 0cda 233f 8efe 66bb 7779 86be
000000a0: 6ef7 0cbf 6eea 8dbe b8c6 5c3d d6c2 863e
000000b0: 80b0 513d 61dd 02bf fe1a 653e 1957 cc3e
000000c0: eef0 813e 9d6f c7bd fd67 953e fcd3 a0bd
000000d0: 852b 8a3e 30af 0bbf 0d14 9d3d 079e 0f3f
000000e0: e2aa fb3d 0f21 0dbe 26c9 703f 28e4 febe
000000f0: fbe6 39bf 7e5c 203d 8157 fd3d 3dbb 313f
00000100: 0b7c 023f 5979 21be 162b c0be 5265 bd3e
00000110: a36f 95be 2d49 75be 7f56 413d cfb9 63be
00000120: f804 053f 1fc4 043e 12ce 71be 9c46 c4bd
00000130: 9d44 363f bc5e 183e 776b fcbe 26e3 6c3e
00000140: 0e02 e03e f9e0 0cbf d165 443e 7a24 d63e
00000150: 6a1c a2bd 36ca 213e d95c 76bd 7ebe 2e3e
00000160: 1303 86bc 24a7 a8be 608d 023e 05ad 733e
00000170: 378f a93d 3fbd a73e 31ca 663e 3637 323e
00000180: 44a3 853c 7f9d 493e 3525 56bd 9ef1 76be
00000190: 1649 093d dd8a ba3e f909 35bc d0ac 733e
000001a0: 13c5 1d3e b07f 7fbe a5c5 8abd 84de 59be
000001b0: ed96 3f3e f367 223d abe4 6d3e e41b 0c3e
000001c0: 6e28 553e e69f e5bd b47f 8c3e e9e9 0c3e
000001d0: 0618 43bc d153 383e f8da f23d afa9 dfbe
000001e0: 85c7 2e3f ca6c e83e 6db0 5e3e f60d 983e
000001f0: 38b0 5a3e 04b1 d8bd d45f 2bbf de55 003d
00000200: 8c7a 4a3e 700e 073e 630c 41bf 21d3 613f
00000210: c7d4 ae3e 1bcb 16bf c02b 36bf e363 ba3d
00000220: b2d2 1dbd 303e 1c3e 9084 cdbc be8b c53e
00000230: ce68 e1be 676c b0be ab7d 6dbe 43c6 ae3d
00000240: bfcd fbbe 0804 9cbe 66ab 4cbe 142d a53e
00000250: b887 01bf 20ed ccbd 14b6 25bf 0c04 063f
00000260: 77d8 97bc 9d31 793e b23b 54bd 793a 3f3d
00000270: cf12 72bc a422 f93e 8574 8f3e 1a40 aabe
00000280: 55c3 5abe 6ab5 fa3a c2bc 94be 9cbc 57bd
00000290: 3e0c 3e3f c448 1e3f f184 72be 7368 19be
000002a0: 9486 4e3e 1cf0 cebe b57f b3bd 09b1 ec3e
000002b0: d8a4 fbbc a0fb 4f3e 5dfd 183e c236 e73d
000002c0: 6612 68be d7ec 0dbe 3508 c1be 3399 833e
000002d0: a91b 67be 8664 ba3d 0850 7c3e fa94 02bd
000002e0: 90ab 54be c2a1 d13e 7bcb 4b3e 3e5c f2bb
000002f0: 7597 13bd 3ade 4d3e 4eb8 1ebe 14da 023e
00000300: ee33 343f 3f4d e53e a6ec 783e 8532 383e
00000310: 138c 8abe ad61 95bd c735 3e3b c0ca 353e
00000320: 8fb5 763e 1633 933e 7e59 69be 434f fc3d
00000330: a023 9dbc fe7c f0bb ba1f 90bd 1971 b43e
00000340: 3910 56bf 5ea4 a73e fb88 cc3e d831 4dbe
00000350: 8b21 a2be c505 0b3f 5a07 40bd 5640 0abe
00000360: 2f3c 23bf 562b d83e 6340 00be c6e3 39bf
00000370: 658c 85be 5d90 d0bd 7d54 b3be b976 b6bd
00000380: 33f1 4abe f0c3 abbc 8313 c93d 72a5 093c
00000390: aa3d 253e 480d 4ebe 3b47 0a3f a1c4 ba3e
000003a0: 216c 033d 6c2f 21bc 1594 163e ca1d 2fbe
000003b0: 975b e9be de36 903d 3518 d63e 2dff 96be
000003c0: ab19 0bbd ae0d 023f c389 023b 3f2d 15bf
000003d0: bfd5 c53e 3e1b c13e 9f58 72be 1c32 003e
000003e0: a3cf 22be c987 fe3d 7902 423e f56f 053f
000003f0: e78b 283d 6c2e 87bd f70f 81bd ec6b 183d
0.3792448 -0.005142491 -0.42450565 0.54819703 -0.36769003 -0.2762668 0.1726308 -0.32258296
0.1515659 -0.20448452 0.34790513 0.41574878 -0.04776903 0.021344138 -0.05168349 -0.37587717
0.05222362 0.04417203 0.14852726 0.23243512 0.12497776 0.032341175 0.28529653 -0.49699515
-0.032200288 -0.07685307 -0.02260259 -0.38794935 -0.42088372 0.79380673 0.14789775 0.048378814
0.903738 -0.33726466 -1.4230984 -0.193834 0.36232474 0.6400459 -0.0035246941 -0.26264545
-0.5506505 -0.27717918 0.05390045 0.26320523 0.051193714 -0.5111905 0.22373578 0.399102
0.25379127 -0.097380854 0.291809 -0.07852933 0.26986328 -0.5456419 0.0766984 0.56100506
0.12288453 -0.13782142 0.9405693 -0.49783444 -0.72618073 0.039150707 0.12370206 0.6942633
0.50970525 -0.15768947 -0.37532872 0.36991364 -0.29186735 -0.23953696 0.04720163 -0.22238849
0.51960707 0.1296544 -0.23613766 -0.0958378 0.71198446 0.14879888 -0.4930074 0.23133525
0.43751568 -0.5503078 0.19179465 0.41824704 -0.07915576 0.15799794 -0.06014714 0.17064855
-0.016358888 -0.32940018 0.12749243 0.2379647 0.08279269 0.3276157 0.22538067 0.17403874
0.016313203 0.19688986 -0.052281577 -0.24115607 0.033516966 0.3643407 -0.011049741 0.23796391
0.15407209 -0.24951053 -0.06775979 -0.21276289 0.18709917 0.039649915 0.23231761 0.13682514
0.20816204 -0.11212139 0.2744118 0.13761105 -0.011907583 0.18000723 0.11858171 -0.43684146
0.6827319 0.453955 0.21746989 0.2969815 0.21356285 -0.10580638 -0.669431 0.03133189
0.1977331 0.13189101 -0.75409526 0.8821278 0.3414671 -0.58903664 -0.7116051 0.09101083
-0.038531013 0.15258098 -0.025087625 0.38583177 -0.44025272 -0.34457704 -0.2319247 0.08533909
-0.4918041 -0.30471826 -0.19987258 0.32260954 -0.50597715 -0.100061655 -0.64730954 0.52349925
-0.018535836 0.24335332 -0.051814742 0.046686623 -0.014774992 0.4865924 0.28018585 -0.3325203
-0.21363576 0.0019127552 -0.2905026 -0.052670106 0.7423743 0.6182978 -0.23683526 -0.1498125
0.20168525 -0.40417564 -0.087645926 0.46228817 -0.030718252 0.20310831 0.149404 0.11289741
-0.22663268 -0.13859878 -0.37701574 0.2570282 -0.22569145 0.091012046 0.24639904 -0.031880356
-0.20768571 0.40943724 0.1990184 -0.00739625 -0.036033113 0.20104304 -0.15499994 0.12778503
0.7039174 0.44785497 0.24309024 0.17988022 -0.27059993 -0.07294021 0.0029023753 0.17753124
0.24092697 0.28749913 -0.22788045 0.123198055 -0.019182026 -0.007339119 -0.07037301 0.35242537
-0.83618504 0.3274259 0.39948258 -0.20038545 -0.31666216 0.5430568 -0.04688201 -0.13501105
-0.6376371 0.42220563 -0.12524562 -0.7261318 -0.26083675 -0.10183785 -0.35025397 -0.08909363
-0.19818573 -0.020967454 0.09818175 0.008401262 0.16136804 -0.20122254 0.5401494 0.3647814
0.03208554 -0.009837966 0.14704926 -0.17101207 -0.4557769 0.07041715 0.41815343 -0.2949156
-0.033960026 0.50802124 0.0019918538 -0.58272165 0.38639638 0.37716097 -0.23666619 0.12519115
-0.1589952 0.12428243 0.18946256 0.5212396 0.041149046 -0.06600651 -0.06301873 0.037212297

biRNN.weight_hh_l0_reverse f4 [39, 13]
00000000: ebd9 2dbf 42b6 a33d ccfb eebe bb6e b4be
00000010: 2140 2a3e d85e bc3e 6baf c43e 070f 1abe
00000020: b8fa 27bc 938e f33d 9dac d5bd a731 d4be
00000030: 3801 9e3a 90a3 13bf 5081 5e3e d4a7 5dbf
00000040: 1808 1bbe 9195 93be 5d66 e73e 1ed1 afbe
00000050: 6839 87bd 9ffc ee3e d5e9 823e 6392 06bf
00000060: 9e27 57be a9ce 713e 857f 09bf e75c d13e
00000070: 2219 3ebe c520 c2be 18f7 643e d8f1 2c3f
00000080: bd2b 78be 09e0 78bd 1eca 6b3e 80da 2b3d
00000090: f686 7fbe ad10 1fbe b717 e73e e8ab 623f
000000a0: 6f7f e1bc 87a7 d1bd 0615 943f 80ab 0abe
000000b0: 4e17 7cbe 6857 a9be a496 df3e 1fe5 c1bd
000000c0: 2554 a33d 2a73 5abc f3e0 45be 6b8c 85be
000000d0: 7900 523e 2709 963d 6c23 6dbd 8d2b b13e
000000e0: 6f9d 413e 0b85 da3e 4ca9 853c ef24 453e
000000f0: 643c f83c a17c 17be 6126 ccbd 516a 833d
00000100: 5695 6bbe c952 123e 696f d5bd f46c 9cbe
00000110: 4362 c9bd 092e 93bd 6bb6 0c3e ee17 853e
00000120: 7ee7 bc3d e968 53be 876f 993d a38d e0be
00000130: 6217 f53d aef3 c8be 8b65 09be 872c c3be
00000140: a99b 343f 12a3 1d3f f967 483f 865d 0fbf
00000150: eade 15be 6e55 8bbe 1aac 0cbf 79af 76bd
00000160: 42be 893f a406 273e 2521 b13e 4d4d c0bd
00000170: c474 9d3d a0fa f63d 23fa 363e 1db5 1a3e
00000180: 320a 103f beb1 a63e 198d 10bf 605d a5be
00000190: 543c 393e c7ec aa3d 15d7 9c3e 716d dd3e
000001a0: e987 163f 907a 413d 433a 143c 9605 913e
000001b0: 9ced 82be 11ef a43e 6460 81be 97f3 8fbd
000001c0: 0bf6 963e f997 0dbd 6dc2 01bf 846c 9fbe
000001d0: 0c57 aabe 6ef6 86be 7ea5 963e 1bc1 fdbd
000001e0: 88c7 3a3e c1d4 7ebe 89fc 4bbe 8116 54be
000001f0: 9217 b73d 6fcd d1bc 1cf5 37be 7c86 363d
00000200: e8f5 b53d c188 cb3d 3e9e ad3e b9f7 ad3d
00000210: 4c59 0a3e 9060 713f 5b4d 103c f85e 09bf
00000220: 3008 b6be 9871 143f c5fd 393d 8cf7 f7be
00000230: 566e 163e 07d8 b13e 160d 93be e198 eabe
00000240: 062b 3ebd f99a 9bbe 9b6d 1abf 4463 74be
00000250: af88 ae3e 4934 a23e 863e f6bd eb0f dbbe
00000260: 50a7 cf3e 852c 16be 12c9 5d3c 3036 193f
00000270: 816d 8abe 0ee5 b13e 53b3 edbe e2be 553e
00000280: e4d5 5ebe fc20 973d 7e7f 513d fdbd 0a3f
00000290: 55b6 8f3e 287c df3d f924 33be ffbc 34bf
000002a0: b660 c63e a3f1 bebc 9a5e c1bd 13e4 bc3e
000002b0: 37ef 3b3e f20e d83e 370e 7f3d 380b b03d
000002c0: 85c2 73bd c57f 46be aa49 de3e e594 6f3e
000002d0: 564f 97bd ad58 7abe f6b5 d8be 0b3f f53d
000002e0: b412 533d 586d 033f 5fb3 a53e 3bbc a0be
000002f0: d22b eb3b eec4 f63c e025 933e d4b1 b9be
00000300: f966 2b3e f027 a4bd 9813 39be f97e 733e
00000310: e5f3 be3e 8a00 2bbe b721 313f 1efb b03d
00000320: 7064 fabe e52c 2cbf a7f6 09bd 501a 4d3f
00000330: 34a6 ff3c 19af 4c3e 2f3d dabe a6ea 84be
00000340: e433 bf3c 7413 2abd 9d46 ba3e 744d 8a3d
00000350: 94cb 423f a5f1 3a3e 54b4 4b3e 2d9d 6cbc
00000360: d6eb a5bd eca8 a73d 872c 273f 7d3f e4bd
00000370: fa81 723d 3b6b 3d3f f0a5 173e 218b a2be
00000380: 417d b43e e2b6 8e3e 7eab 1abe 832d 12be
00000390: 35c9 0b3b c0a0 ec3e f8b7 0ebf 5676 f0be
000003a0: bea1 c5be b8fa 45bf 8ec6 2dbf c063 b8be
000003b0: fa53 9f3d beb2 66bf b45c e5be 8d12 673f
000003c0: 80d5 193f 2741 36be 3eb8 3fbe b292 f63d
000003d0: 7e77 4dbf 2ba8 84bd df46 c43e ceba 943d
000003e0: f2c7 bf3d 9858 a43e 292e 073f 576d b73d
000003f0: 1a86 8f3c a99c bb3d 6545 b23d 23c0 453e
-0.6791064 0.07993747 -0.4667648 -0.3524073 0.16626026 0.3679111 0.38415083 -0.15044795
-0.010252647 0.11892428 -0.10433314 -0.41444132 0.0012054807 -0.5767145 0.21729016 -0.8658421
-0.15139806 -0.28825048 0.45195284 -0.3433923 -0.06602746 0.4667711 0.25569025 -0.5256712
-0.21011207 0.23613991 -0.53710204 0.4089119 -0.18564275 -0.37915626 0.22359884 0.67556524
-0.24235435 -0.06076053 0.2302632 0.041956425 -0.24953827 -0.15533705 0.4513528 0.8854356
-0.027526585 -0.102370314 1.1568916 -0.13541985 -0.24618265 -0.33074498 0.43669617 -0.094675295
0.07975034 -0.013333121 -0.19324093 -0.26083693 0.20507993 0.073259644 -0.05789511 0.3460354
0.18907712 0.4267963 0.016316079 0.1925237 0.030302234 -0.14793636 -0.09968258 0.064167626
-0.23006186 0.14289393 -0.104216404 -0.30551875 -0.09833195 -0.07186515 0.13741462 0.2599482
0.09223841 -0.20645489 0.07491975 -0.4385806 0.119673505 -0.39248413 -0.13417642 -0.3811991
0.7055002 0.6157695 0.7828365 -0.5600208 -0.14635816 -0.27213615 -0.54950106 -0.060225938
1.0761187 0.16311127 0.345956 -0.09389744 0.07688287 0.12059522 0.17868857 0.15108152
0.56265557 0.32557482 -0.564653 -0.32297802 0.1808942 0.08345943 0.30632845 0.4324756
0.5880113 0.047236025 0.009047094 0.28324574 -0.25571907 0.32213643 -0.25268853 -0.07028883
0.2948459 -0.03456876 -0.50687295 -0.31137478 -0.33269536 -0.26359886 0.29423136 -0.123903476
0.18240178 -0.24885847 -0.19920553 -0.2071171 0.089400426 -0.025610654 -0.17964596 0.044561848
0.088847935 0.09938193 0.33909792 0.08494515 0.13510627 0.9428797 0.0088075055 -0.53660536
-0.35553122 0.5798583 0.04540803 -0.4843105 0.14690527 0.34735128 -0.2872092 -0.45819762
-0.04642775 -0.30391672 -0.60323495 -0.23865992 0.34088656 0.31680515 -0.12023644 -0.42785582
0.40557337 -0.1466542 0.013536708 0.5984831 -0.2703667 0.34745067 -0.46425876 0.20873597
-0.2176128 0.07379338 0.051146977 0.5419615 0.28068796 0.10912353 -0.17494573 -0.70600885
0.3874566 -0.02330858 -0.09441872 0.36892757 0.18352972 0.42198902 0.062269416 0.0859589
-0.05951168 -0.19384678 0.43415576 0.23396643 -0.07388179 -0.2444789 -0.42326325 0.11974915
0.05153151 0.5133872 0.32363412 -0.31393608 0.0071768546 0.0301232 0.28739834 -0.36268485
0.167385 -0.0801543 -0.1807388 0.23778905 0.37295452 -0.16699424 0.6919207 0.08641647
-0.48904753 -0.67256004 -0.03368249 0.80118275 0.031207182 0.1998867 -0.42624804 -0.25960273
0.023340173 -0.04152246 0.36382 0.06753054 0.76091886 0.18256243 0.19893008 -0.0144417705
-0.08101623 0.08186516 0.6530232 -0.11144922 0.059205987 0.73991746 0.14809394 -0.31746772
0.3525181 0.27873904 -0.15104482 -0.14275174 0.0021329646 0.46216393 -0.55749464 -0.46965283
-0.38599962 -0.7733569 -0.67881095 -0.36013603 0.07779689 -0.9011649 -0.4479729 0.9026268
0.600914 -0.17798291 -0.18722627 0.12039699 -0.80260456 -0.06477388 0.3833532 0.07262193
0.093643084 0.32098842 0.5280481 0.08956402 0.01752 0.0916074 0.08704642 0.19311576

biRNN.bias_ih_l0_reverse f4 [39]
00000000: a1fc 943e 1214 153e 9c2a 1cbe ce52 493e
00000010: 2834 d23e d586 433d ca70 6ebe e32d 6d3e
00000020: 2d0a 29bd 18f5 223e bb48 0bbe c79e 163e
00000030: 44f1 d6bd 7954 0b3e c58c a2be ff0d b2be
00000040: ea9e 5b3d 7743 b23e c481 e13e 187f d5be
00000050: 620a 93be 9d51 263e 252e 59be cebe 1c3f
00000060: f776 a8be 4199 f6be 2c7b e0bd e85a 073e
00000070: 64e8 89be e512 513e 802f d13d bf17 0f3e
00000080: 8b76 cabd 03f0 c83b 309b ff3c 7b91 653d
00000090: 8c39 39bc 7b51 153d 7809 3ebd
0.2909899 0.14558437 -0.15250629 0.19660494 0.41055417 0.047736008 -0.23285213 0.23162036
-0.04126947 0.15913808 -0.13601963 0.14709006 -0.104952365 0.13606443 -0.31748024 -0.34776303
0.05361835 0.34817097 0.44044316 -0.41698527 -0.2871886 0.1624207 -0.21209009 0.61228645
-0.32903263 -0.48163798 -0.10960993 0.13218272 -0.26935112 0.20417364 0.10214138 0.13973902
-0.098858915 0.0061321273 0.031201929 0.056046944 -0.011305224 0.03645466 -0.04639575

biRNN.bias_hh_l0_reverse f4 [39]
00000000: b1b3 a53d 935e 153d dbac 25bd a032 983e
00000010: 86a8 423f f63f 553c 4cbc f3bd 3c47 a73e
00000020: 9934 1cbd 2fa7 603d fbfa 7a3e 6f37 71bd
00000030: 2b02 1abd ca71 473b 0f31 34be f922 4abe
00000040: af18 46bd 13bb ce3b 1833 363e 4633 91be
00000050: b09a 8cbe df14 93bd ffa4 f3be ca03 283f
00000060: 962a a3bd 84d0 4abe 776b f23d 2696 fd3d
00000070: 0f7a 0b3d b8c4 86bd 6f88 ccb8 8aed a8be
00000080: a994 4d3e 2c41 c83d e95e 8c3e 4490 ac3d
00000090: 5573 143e c959 c6bc 40c4 b1be
0.08090914 0.036467146 -0.04044805 0.29726124 0.76038396 0.013015738 -0.11901149 0.32671535
-0.0381361 0.05484694 0.24509804 -0.058890756 -0.037599724 0.0030432814 -0.1759684 -0.19739904
-0.048363384 0.006308922 0.17792928 -0.2835943 -0.27461767 -0.07181715 -0.4758682 0.6563078
-0.07967107 -0.19806105 0.118369035 0.12382154 0.03405195 -0.0658049 -9.752891e-05 -0.32993728
0.2007624 0.097780555 0.2741616 0.08425954 0.1449712 -0.024212735 -0.3472004

batchNorm1.weight f4 [26]
00000000: ec37 ef3e fcdc 143f 2098 a73e 6ac8 833e
00000010: c673 473f cc1b 313f 49fb a13e 3323 4a3f
00000020: 023f 5b3f 20b4 2e3f 6d6f e23e fb0e 353e
00000030: ac07 9b3e 9615 e03e 2814 153f dc9a 273f
00000040: 1493 ca3e 3ac1 f13e 8703 48bd 1812 e33e
00000050: 305e 073f 0974 d83e cef9 eb3e ca07 0b3f
00000060: aaf1 1b3f 70a8 c63e
0.46722353 0.58149695 0.3273325 0.2573884 0.7791103 0.6918304 0.31637028 0.7895996
0.8564302 0.682436 0.44225636 0.17681496 0.3027929 0.4376647 0.5823388 0.6547067
0.39565337 0.47217733 -0.04883149 0.44349742 0.52878094 0.42276028 0.46089023 0.5430876
0.60915625 0.38800383

batchNorm1.bias f4 [26]
00000000: fdf0 18be 4b5c e7bd fe61 9a3d 98a5 5ebd
00000010: d24e 6ebd 654a 843e 5163 01bd 9f22 42be
00000020: 5cae 9bbe 9a2a 513e 93b6 99bd 6b84 80bd
00000030: f6ff 4ebb 47d1 e03d b71f 113e 2dc0 3ebe
00000040: 63ad f73d 029e e2bd d73d 07bb 6df2 f6bd
00000050: 8512 133e a79f eb3d d3d4 cbbd 6aa9 d9bd
00000060: 1cea 5cbe cefb d9bd
-0.1493568 -0.112969 0.07538222 -0.05435714 -0.058180638 0.2583801 -0.031588856 -0.1895852
-0.30406463 0.20426407 -0.075055264 -0.06275257 -0.003158567 0.109774165 0.14172255 -0.18627997
0.12093618 -0.11065294 -0.0020636225 -0.12057958 0.14362533 0.11505061 -0.099527024 -0.10628016
-0.2157368 -0.10643731

batchNorm1.running_mean f4 [26]
00000000: 1046 00bf 2a62 cabc 4b9e 593e 7484 18bf
00000010: 8545 21bf 9a1e 283f 07a5 a5be b499 13bf
00000020: a10e 22bf 783e 0b3f ef28 efbe 9278 9ebd
00000030: 514e babe f163 1e3f e948 ea3e c8a2 d3be
00000040: 019d e13e 269f e0be 2b9e 863e 18a2 dcbe
00000050: 00fc ee3e bfb5 ad3e 943a d6be 58c0 14bf
00000060: 715a c6be 6c10 4ebf
-0.50106907 -0.024705011 0.2125179 -0.5957711 -0.62996703 0.65671694 -0.32352468 -0.5765641
-0.6330357 0.54392195 -0.46710917 -0.07737841 -0.36387876 0.6187125 0.4575875 -0.4133513
0.44065097 -0.4387142 0.26292548 -0.43092418 0.46676636 0.33927724 -0.41841567 -0.58105993
-0.38740876 -0.8049381

batchNorm1.running_var f4 [26]
00000000: 6977 2240 9fa8 303f 17da 4a40 2b9c 4940
00000010: 0145 3d40 c86e 2f40 aafa d13f 5799 1540
00000020: 05c5 1240 7e9e 2240 844c 6340 52f2 0a40
00000030: 6eb2 3140 b601 0940 f4d3 943f b68b 873f
00000040: 66ed c83f 4ff1 9b3f cd99 0640 f0c9 a13f
00000050: e6c7 b53f c38a 583f d26b 923f b208 f93f
00000060: 4e48 863f 73d7 5f40
2.5385382 0.69007295 3.1695611 3.1501567 2.9573367 2.7411366 1.6404622 2.3374841
2.293275 2.5409236 3.5515451 2.17104 2.7765155 2.1407294 1.1627183 1.0589511
1.5697448 1.2183017 2.1031373 1.2639751 1.4201629 0.84586734 1.1439154 1.9455779
1.0490816 3.497525

batchNorm2.weight f4 [16]
00000000: 338d 6c3f f3c3 7a3f 823d 663f 737f 5e3f
00000010: 9bc8 6e3f 3748 713f 9614 753f b811 683f
00000020: dc0f 623f 8dae 603f 8a01 703f 6620 5b3f
00000030: ae62 7b3f daca 703f 015b 6a3f 8068 7d3f
0.9240295 0.97955245 0.89937603 0.8691322 0.9327485 0.94250816 0.95734537 0.90652037
0.8830545 0.87766343 0.9375235 0.8559631 0.9819745 0.94059527 0.9154511 0.9898758

batchNorm2.bias f4 [16]
00000000: be62 d93e 6a6c dfbe 134b cebe abfc d53e
00000010: d1f8 ddbe 503f d9be 9dca da3e adcd d8be
00000020: 7701 d13e dc3e cc3e bfb2 d53e d6f4 cf3e
00000030: 467f e03e 5c2c df3e 3f6b d33e f235 e03e
0.42458147 -0.436374 -0.40291652 0.41794333 -0.43353894 -0.42431116 0.42732707 -0.42344418
0.4082143 0.39891708 0.41737935 0.40616482 0.43847102 0.4358853 0.4129276 0.43791157

batchNorm2.running_mean f4 [16]
00000000: 4823 ca3e ab91 ebbe 7c5b cabe c283 233f
00000010: a31e c9be 7e25 c3be d1db da3e 0fa7 d3be
00000020: ff59 083f 83c2 053f 4a3d 003f 20d3 013f
00000030: ec9a dc3e b4a0 0f3f 5eb8 bb3e 5862 cf3e
0.39480042 -0.46009573 -0.39522922 0.6387292 -0.39281186 -0.38114542 0.42745832 -0.41338393
0.53262323 0.52249926 0.5009352 0.50712776 0.43086946 0.5610459 0.36664099 0.40504718

batchNorm2.running_var f4 [16]
00000000: a651 8f3f 72e1 c13f f86f 913f bb00 2e40
00000010: 886d 8b3f b25f 853f 7b3b a53f 37e0 9e3f
00000020: a41a 0040 48c1 f23f b448 e53f ef1a ec3f
00000030: fc52 a13f 0514 0b40 c6f8 7d3f 5ce5 9a3f
1.1196792 1.5146925 1.1362295 2.7187946 1.0892801 1.0419829 1.2908777 1.2412175
2.001626 1.8965235 1.7912812 1.844572 1.260345 2.173097 0.99207723 1.2101245

RNN.weight_ih_l0 f4 [48, 26]
00000000: ccdd 403f 04a2 75be b092 aabe 93fa e03d
00000010: 638a 863e 1d40 dabd 552a d33e b207 0d3e
00000020: 1dbb 413e 86ee 39be 3cb6 573e aa97 a53e
00000030: d007 61bd 1782 0ebe 9ecb 8cbc b4f8 be3d
00000040: 8920 54be e3f9 353e 024b b53d e868 be3d
00000050: d36b a9bd 102b d53d 86e3 28bd 7145 ecbd
00000060: 49c4 283e 5514 abba d8b3 8b3d f0a8 4c3f
00000070: a125 7bbe df2d 27bf 7075 d9be f843 efbe
00000080: 170d e9be e327 31be dae9 043f f18a a13e
00000090: 390b 9bbd 9fe8 2c3d 0b3e 0d3e f5db 9a3e
000000a0: 43ba e6be ab7e 333d 9351 f7be 9b28 10bf
000000b0: db8a 513e 9c7a 8a3e 6b20 08bd be65 26bf
000000c0: c427 4dbd 8f2e a1be 7e36 bb3d 440e 60be
000000d0: d667 0abf 5836 563f 045c 15bc 8099 2fbf
000000e0: 92a0 13bf 10b0 9ebc 8e3d 17bf 9f2a 0dbe
000000f0: edc8 e83d a7e3 af3e 653d 17be 5aba d5be
00000100: c246 e7be ad46 f53e 00be 633d 34c7 b0be
00000110: a633 99be 600d 02bf b8ce 5c3e 8317 213e
00000120: 44ea 103d f445 87be 1f32 fdbe 758e 01be
00000130: 138c a5be c9f2 21bf bcdf afbc 3918 59be
00000140: 75c3 a2be 7608 063e 92e5 543e e8cd 053e
00000150: ab6a 763e bc59 a7bd e43c 1dbe a37c 313e
00000160: ad70 353d 7fa5 bfbe f3c8 d8be 5dbd 44be
00000170: 02d1 b13b d934 c2bb a1ba a8be 3f37 f13b
00000180: f2b1 a0be b82a 9dbe d630 61bd f875 6abe
00000190: 90ba 9ebd e54c 6bbd 8945 9dbb 443a 88bc
000001a0: 4097 0abe f37c ab3e 9d26 07bd 6401 1fbe
000001b0: 06ee 8bbe 6843 a33e 94bf 9e3d e237 12be
000001c0: 70fb 0d3e 4850 183e db2c 21be fdca 65be
000001d0: 9a25 dfbb d13b 4f3e 055a 86bd 1d3e 4fbe
000001e0: 9df9 a33e 03f2 a1be 44f1 033e 8d86 dfbd
000001f0: 7e97 2b3e 104e a6bd 9850 42be 7522 a3bb
00000200: cee7 61be 3a41 bbbd 9caf 783e 30e7 4b3f
00000210: 80f1 673c 6fe0 19bf f19d aebe 575a a9bd
00000220: a184 863e 480b e0bd c2cb 803e 10e5 b53e
00000230: d04a 29be 6c7e f0bd ce01 823b 73de e43e
00000240: c258 e8bd cdaf 08be 69ba 95be 87f6 b5be
00000250: 4a9c 9b3c b61a b43d c018 683e 89d1 20be
00000260: fcf1 90bc da3b 99be 72a6 403d aa19 7dbd
00000270: af1b bb3d 3cba d63e 4e8d 42be 3449 bbbe
00000280: 8cb4 1bbe 72e0 f23c 5810 bcbc 9aa0 9ebd
00000290: b6f9 853e 1001 bb3d 5258 25be 805e 23be
000002a0: 2b94 4c3b bbc2 d03e 3c43 9bbd cce4 a23d
000002b0: 8e09 9bbe 2876 e9be 39c4 b03e 2ef1 4abc
000002c0: 0529 e5bc 741e 84be f6b2 3ebe a8ea ffbd
000002d0: 435a d73d b44d eebd 9521 433c 5014 083e
000002e0: 9e7e 44bd 8811 fbbe a315 133d 3467 13be
000002f0: bdd9 223e da33 d43d 8f8e c53d 112b a83e
00000300: cc05 a53e f44e 853b 045b a2be 7e0c 1abd
00000310: eba6 27bb 20e5 823e 4fc3 0a3e 3665 9ebe
00000320: 0108 ddbd 036c a5be dcb1 22bd 0450 cbbd
00000330: 18f1 2dbd e0d4 9f3c d07b babd 0b6d 4cbe
00000340: 9bed f5bc d089 993f 5343 9dbe 8226 03bf
00000350: 59b1 05bf 3647 d6bd d676 c6be b834 96bd
00000360: 27b2 183f 9bf1 443e abc9 d03d d4da 163e
00000370: 22a5 b9be d4f0 073f 81d1 03bf de8f 173e
00000380: 2945 70bf d79e fbbe 2fc5 cb3e 4244 d23e
00000390: 3a49 0dbe caa0 20bf b79b 213e 6db7 23be
000003a0: 28a3 f33e 4181 a23c 0c06 f1be 207c 8a3f
000003b0: 94fe a0be 0356 64be 4f85 f1be 7a04 18be
000003c0: a0a5 0cbf 8756 9abe d6de 453f 5021 cb3e
000003d0: 04a7 8bbd 7d06 0a3e 4563 cc3c 9858 b63e
000003e0: 064f f7be 7005 313e 7608 2abf 02f9 18bf
000003f0: 29ba 8fbc c17c e03e 7219 babe ed03 1bbf
0.75338435 -0.23987585 -0.3331504 0.10985293 0.26277456 -0.1065676 0.41243234 0.13772467
0.18919034 -0.18157396 0.2106561 0.32342273 -0.05493909 -0.13916813 -0.017186936 0.0932478
-0.20715536 0.17771105 0.08852197 0.09297353 -0.08272519 0.10408604 -0.04123261 -0.115366824
0.16481127 -0.0013052324 0.06821412 0.7994528 -0.24526073 -0.6530437 -0.4247241 -0.46731544
-0.455178 -0.17300372 0.5191933 0.31551316 -0.075705 0.042214032 0.13793199 0.3024594
-0.4506398 0.043821972 -0.48304424 -0.5631196 0.20463125 0.2704667 -0.03323404 -0.64998996
-0.05008675 -0.31480834 0.09141253 -0.21880442 -0.5406469 0.8367667 -0.0091161765 -0.685936
-0.57666886 -0.019371063 -0.590783 -0.1378579 0.113664486 0.34353372 -0.14769514 -0.41743737
-0.4517117 0.47905484 0.05560112 -0.3452698 -0.29922217 -0.5080166 0.21563232 0.15731625
0.035379663 -0.26420557 -0.49452302 -0.12652 -0.3233343 -0.63261086 -0.02146899 -0.21200646
-0.31789747 0.13089165 0.20790699 0.13066828 0.24064128 -0.08171412 -0.15355259 0.17332701
0.04429691 -0.3743095 -0.42340812 -0.19212861 0.005426527 -0.00592671 -0.32954887 0.007361322
-0.31385761 -0.30696654 -0.054978214 -0.22896564 -0.07750428 -0.05744638 -0.004799549 -0.016629346
-0.1353426 0.33493766 -0.03299581 -0.15527874 -0.27330035 0.31887364 0.077513844 -0.1427913
0.13865447 0.14874375 -0.15739767 -0.22440715 -0.0068099024 0.20237662 -0.065601386 -0.20238538
0.32026377 -0.31629953 0.12885004 -0.109143354 0.16757008 -0.08120358 -0.18976057 -0.004978473
-0.22061083 -0.091433 0.2428574 0.7964964 0.014156699 -0.60108083 -0.34104875 -0.08269184
0.26273063 -0.10939652 0.25155455 0.35526323 -0.16532445 -0.11742863 0.0039675003 0.44700965
-0.11345054 -0.13348313 -0.29243782 -0.35539648 0.018995423 0.08794157 0.22665691 -0.15704931
-0.017693512 -0.29928476 0.047033735 -0.061792053 0.091361396 0.4193896 -0.18999216 -0.36579287
-0.15205592 0.02964804 -0.022957012 -0.07745476 0.26167077 0.09131062 -0.16146973 -0.15954018
0.0031216245 0.40773568 -0.07581183 0.07953796 -0.30280727 -0.4559796 0.34524706 -0.012386603
-0.027973661 -0.25804484 -0.18622956 -0.12495929 0.10515263 -0.116359144 0.011909862 0.13288999
-0.047972314 -0.49036813 0.035909306 -0.14394838 0.15903373 0.103614524 0.096463315 0.32845357
0.32230985 0.00406825 -0.31710064 -0.03760957 -0.0025581669 0.25565434 0.13551067 -0.30936593
-0.10792542 -0.3230897 -0.0397204 -0.09927371 -0.042466253 0.019510686 -0.091056466 -0.19963472
-0.030020526 1.1995182 -0.30715427 -0.51230633 -0.52223736 -0.10462801 -0.3876254 -0.07334274
0.5964684 0.1923279 0.10194715 0.14731914 -0.362588 0.5310185 -0.5149155 0.14800975
-0.9385553 -0.49144623 0.39798877 0.41067702 -0.13797465 -0.62745345 0.15782057 -0.1598794
0.47585416 0.019837024 -0.47074926 1.081913 -0.31444228 -0.22298436 -0.4717202 -0.14845458
-0.54940224 -0.3014414 0.77293146 0.39673853 -0.06818965 0.13479038 0.02494968 0.35614467
-0.48302478 0.1728723 -0.6641916 -0.59754956 -0.017544823 0.4384518 -0.36347538 -0.60552865
