UI/GRU_MFCC_normalized(RMS)_BGN-7db_0.6sec_HalfLabel0-insert[0,4]_low-FA.pt (torch, 42339 bytes, 19 tensors)

conv.0.weight f4 [26, 13, 15]
0	0xbc8772d2	-0.016534243
1	0x3cc7fd11	0.024412664
2	0xbdc3683e	-0.09541367
3	0xbda158f7	-0.07878297
4	0xbe28fff2	-0.16503885
5	0xbe294fcc	-0.16534346
6	0xbe17e84c	-0.14834708
7	0xbdc8c156	-0.09802501
8	0xbe68ae1a	-0.22722664
9	0xbeafa170	-0.34302855
10	0xbea8eaa0	-0.32991505
11	0xbed8ef58	-0.42370105
12	0xbeed6ed7	-0.46373627
13	0xbf29b6f8	-0.66294813
14	0xbf2bf8cd	-0.67176515
15	0xbe6637c1	-0.22482206
16	0xbe0ac970	-0.13553405
17	0xbe9e9e90	-0.3098035
18	0xbec97421	-0.39346412
19	0xbeb094ee	-0.34488624
20	0xbe9b91b1	-0.3038459
21	0xbeb263e2	-0.3484183
22	0xbe567e58	-0.20946634
23	0xbe207626	-0.1567007
24	0xbe5400dc	-0.20703453
25	0xbe8aefda	-0.27136117
26	0xbea1a16d	-0.3156847
27	0xbe6c3758	-0.23067987
28	0xbe1f76e4	-0.15572697
29	0xbe5cb7e8	-0.2155453
30	0xbf027374	-0.5095742
31	0xbed045b9	-0.40678194
32	0xbee0f46c	-0.4393648
33	0xbece43fe	-0.4028625
34	0xbec4ab57	-0.38411972
35	0xbe89d373	-0.26919135
36	0xbec4e34c	-0.38454664
37	0xbee8116b	-0.4532579
38	0xbebc8dd1	-0.36826947
39	0xbe5eaf07	-0.21746455
40	0xbe942096	-0.2893111
41	0xbef610d9	-0.4805973
42	0xbefb4903	-0.4907914
43	0xbe563cfe	-0.20921704
44	0xbcde90d8	-0.027168676
45	0x3ed19a49	0.40938023
46	0x3e6c38ac	0.23068494
47	0x3e49643c	0.19667143
48	0x3e7041af	0.23462556
49	0x3dfff625	0.1249812
50	0x3e7d7d0e	0.24754736
51	0x3e835ad4	0.25655234
52	0x3e2f6937	0.1712998
53	0x3d60a707	0.05484679
54	0x3b643336	0.0034820563
55	0x3d36d10f	0.044632968
56	0x3da59ddd	0.08086751
57	0x3c70028c	0.014649045
58	0x3e111058	0.14166391
59	0xbc4a8365	-0.012360428
60	0x3e0ca657	0.13735329
61	0x3e5f18bf	0.21786784
62	0x3dcd7e59	0.100338645
63	0x3dc2260c	0.09479913
64	0x3e2f0285	0.17090805
65	0x3d914909	0.070940085
66	0x3d41b30e	0.0472899
67	0x3e50a6cb	0.20376126
68	0x3e1c1cd5	0.15245374
69	0x3e9e841a	0.3096016
70	0x3e9c77aa	0.30560046
71	0x3e60f5cf	0.21968769
72	0x3e1bba46	0.15207776
73	0x3e60039d	0.21876378
74	0x3ea21396	0.31655568
75	0xbf04860b	-0.51767033
76	0xbeb0e595	-0.34550157
77	0xbe82928d	-0.25502434
78	0xbe71d6bc	-0.23617071
79	0xbe4534e0	-0.19258451
80	0xbe2bdb37	-0.16782843
81	0xbdfd440a	-0.12366493
82	0x3c0628d9	0.00818845
83	0xbd8fafc8	-0.070159495
84	0x3cf70a5d	0.030156309
85	0x3d248f14	0.040175512
86	0xbcc52f9a	-0.02407055
87	0xbe05fbd4	-0.13084346
88	0x3b8fc718	0.0043877475
89	0xbd576c94	-0.052593783
90	0xbe98e271	-0.2986026
91	0xbe4231ab	-0.1896426
92	0xbd865270	-0.065586925
93	0xbe108e35	-0.14116748
94	0x3c484d4d	0.012225461
95	0xbd3284ae	-0.043583564
96	0xbd35e4bf	-0.044407602
97	0xbd8dd03c	-0.06924483
98	0x3d86a0f5	0.06573669
99	0x3e1c633b	0.15272228
100	0x3eadf5f0	0.33976698
101	0x3e8725f1	0.26396134
102	0x3e8c6361	0.2741957
103	0x3ed5507c	0.41662967
104	0x3f0c5ff7	0.5483393
105	0x3e81c42e	0.25344986
106	0x3dabad29	0.08382637
107	0x3e42b711	0.19015147
108	0x3d570b2c	0.05250089
109	0x3e629bff	0.2212982
110	0x3dd0d2e6	0.10196476
111	0x3e778911	0.2417338
112	0x3d68b727	0.056815293
113	0x3e1a1f8f	0.15051101
114	0x3de57e8c	0.112057775
115	0x3d7055e1	0.05867565
116	0xbcdd8ad0	-0.02704373
117	0x3dc69107	0.096956305
118	0x3d2cacd4	0.04215701
119	0x3c08b599	0.0083440775
120	0x3e80dd41	0.25168803
121	0x3e8d3d23	0.27585706
122	0x3e3b5e79	0.18297757
123	0xbce2ca98	-0.027684495
124	0x3df0fe97	0.11767309
125	0x3e7891fb	0.24274437
126	0x3e828d7a	0.25498563
127	0x3e42328d	0.18964596
128	0x3ec7f66f	0.390552
129	0x3f06d7fb	0.5267331
130	0x3eaf9449	0.3429282
131	0x3ed4a8aa	0.4153493
132	0x3f02be4e	0.5107163
133	0x3f0dc6a8	0.5538125
134	0x3f093336	0.53593767
135	0xbf03bac7	-0.51456875
136	0xbec73cc6	-0.38913554
137	0xbd995359	-0.074866004
138	0xbdbccab2	-0.092183486
139	0xbe0cd5b7	-0.137534
140	0xbe68dbc3	-0.22740082
141	0x3dc6e6a2	0.097119585
142	0xbd02310b	-0.031785052
143	0xbd2b814c	-0.041871354
144	0x3e6e46a0	0.23269129
145	0x3e8698c1	0.26288417
146	0x3e32c9a8	0.17459738
147	0x3e2266ae	0.15859482
148	0x3e6dd06f	0.23224042
149	0x3e4284ed	0.1899602
150	0xbeaafde7	-0.33396837
151	0xbeaa153f	-0.33219334
152	0xbea1d256	-0.31605786
153	0xbe4fc7db	-0.20291083
154	0xbe33ae00	-0.17546844
155	0xbe3d752b	-0.18501727
156	0xbe0822f6	-0.13294587
157	0xbda7ee39	-0.08199734
158	0xbe278406	-0.16358957
159	0xbdc19099	-0.09451408
160	0xbe449219	-0.19196357
161	0xbe970c83	-0.29501733
162	0xbe39850f	-0.18117164
163	0xbe3902ae	-0.18067428
164	0xbd8456a3	-0.06461837
165	0x3deecf13	0.1166059
166	0x3e6976ea	0.22799268
167	0x3c8129df	0.015767036
168	0x3e0488cf	0.12942813
169	0x3d3ebc89	0.04656652
170	0x3e39f1f3	0.18158703
171	0xbb2606ee	-0.002533372
172	0x3dde809a	0.108643726
173	0xbd9590bb	-0.07302996
174	0x3e02e171	0.12781312
175	0xbd9f2834	-0.0777134
176	0x3dd7598b	0.10515126
177	0x3c279893	0.010229248
178	0x3e00de24	0.1258474
179	0x3cb6c074	0.022308566
180	0x3e9aea97	0.30257103
181	0x3edf2c18	0.43588328
182	0x3eb5bec5	0.35497108
183	0xbd06257f	-0.032750603
184	0xbda3258f	-0.07966148
185	0x3e3fd959	0.18735255
186	0x3d183d5a	0.037167884
187	0xbd1faf7b	-0.03898571
188	0xbe805839	-0.2506731
189	0xbd738318	-0.059451193
190	0x3d1939e3	0.03740872
191	0x3c64ffc6	0.013976997
192	0xbe2f9816	-0.1714786
193	0xbe59d836	-0.21273884
194	0xbdc126c2	-0.094312206
195	0x3d9a6edd	0.07540677
196	0x3df17a17	0.11790865
197	0x3d87edde	0.066371664
198	0x3dcb4d5a	0.09926863
199	0x3d779105	0.060441036
200	0x3e0a7ed8	0.1352495
201	0xb99feca0	-0.00030503143
202	0xbdf17245	-0.11789373
203	0xbe555c5b	-0.20836012
204	0xbea92a61	-0.33040145
205	0xbed4dfb1	-0.41576913
206	0xbeed7e68	-0.46385503
207	0xbf2f392e	-0.68446624
208	0xbf3d3055	-0.73901874
209	0xbf493e62	-0.78610814
210	0x3f38e705	0.7222751
211	0x3f22a56d	0.6353367
212	0x3f3b1c9e	0.7309054
213	0x3f57846c	0.84186435
214	0x3f369eef	0.71336263
215	0x3ecebc12	0.4037786
216	0x3f03c9ce	0.51479805
217	0x3ee06f80	0.43835068
218	0x3ec6b371	0.38808778
219	0x3dc00709	0.09376342
220	0x3e6b2029	0.22961487
221	0x3d530e1d	0.05152713
222	0xbd526dbc	-0.051374182
223	0x3e0372e7	0.128368
224	0x3e0d9721	0.13827182
225	0xbe52fb0b	-0.20603578
226	0xbe0afb5c	-0.13572448
227	0xbdfbc853	-0.12294068
228	0xbe68c830	-0.22732615
229	0xbe0f42d5	-0.13990338
230	0xbd151d3e	-0.03640484
231	0x3df74cdb	0.12075206
232	0x3e250c7b	0.16118042
233	0x3dd19a1b	0.102344714
234	0xbcc92a1a	-0.024556208
235	0x3d951e35	0.07281152
236	0xbba797dd	-0.005114539
237	0xbd9c5c3a	-0.07634778
238	0x3d286547	0.04111221
239	0x3cbce28b	0.023057243
240	0xbe51cd05	-0.20488365
241	0xbe8d5888	-0.27606606
242	0xbe877649	-0.26457432
243	0xbe473d75	-0.19457038
244	0xbeb391ee	-0.35072273
245	0xbe980425	-0.29690662
246	0xbe113b3b	-0.14182751
247	0x3be249e5	0.0069057816
248	0xbdd0b483	-0.1019068
249	0x3dcb9064	0.0993965
250	0x3ebc39ea	0.36762935
251	0x3f130766	0.57433164
252	0x3f074541	0.5284005
253	0x3ef5003e	0.47851747
254	0x3f1f3d14	0.6220257
255	0xbed9b673	-0.4252201

conv.0.bias f4 [26]
0	0xbc6d1c1f	-0.014472037
1	0xbd0d29a4	-0.03446354
2	0x3d64fb17	0.05590352
3	0x3cbdac16	0.023153346
4	0xbc5d2aa6	-0.013498938
5	0xbca20a36	-0.01978026
6	0xbc93fa52	-0.018063698
7	0x3d0ae045	0.033905286
8	0x3d81d73d	0.063398816
9	0x3d7016cc	0.05861549
10	0xbc78f745	-0.015195672
11	0xba539669	-0.0008071424
12	0x3d4a537a	0.049396016
13	0x3d816da8	0.063197434
14	0xbd3a49b2	-0.045480438
15	0x3c8286d3	0.01593343
16	0x3ba4427d	0.005012809
17	0xbd4ccd4d	-0.050000478
18	0x3b24a8c9	0.0025125018
19	0x3d4e53f8	0.050373048
20	0xbd5f0324	-0.054446355
21	0xbd7266bc	-0.059180006
22	0xbbb7358d	-0.0055911005
23	0x3b202be7	0.002444023
24	0xbd7e8834	-0.062141612
25	0x3af416ee	0.0018622556

conv.1.weight f4 [26]
0	0x3ebf7552	0.37394196
1	0x3e89f1ee	0.2694239
2	0x3eb166a7	0.3464863
3	0x3ef8af57	0.48571274
4	0x3efd9ebe	0.49535173
5	0x3ed994b7	0.42496273
6	0x3ee1f57f	0.4413261
7	0x3ec61878	0.38690543
8	0x3eec50d2	0.4615541
9	0x3ec3a3dd	0.38210955
10	0x3ec2911e	0.3800134
11	0x3ecebe2c	0.40379465
12	0x3ef52604	0.47880566
13	0x3ecbd6fc	0.39812458
14	0x3eb38e09	0.35069302
15	0x3f0cb13f	0.54957956
16	0x3ee6cf72	0.45080143
17	0x3eed738a	0.46377212
18	0x3ed548c8	0.4165709
19	0x3ee7665b	0.4519528
20	0x3ed1f952	0.4101053
21	0x3ef2ac47	0.47397062
22	0x3ef91789	0.48650768
23	0x3ee7dc85	0.4528543
24	0x3f0e4440	0.5557289
25	0x3ef44bcd	0.4771408

conv.1.bias f4 [26]
0	0xbe275c8c	-0.16343898
1	0xbe6ba85d	-0.23013444
2	0xbebfbbba	-0.37447912
3	0xbf4cbc1a	-0.7997452
4	0xbe3d2922	-0.18472722
5	0xbecf2f7b	-0.40465912
6	0xbec45f3b	-0.38353905
7	0xbef109f8	-0.47077918
8	0xbdae8e3f	-0.08523225
9	0xbf5b504a	-0.85669386
10	0x3ce65405	0.028116236
11	0xbf02a1ea	-0.5102831
12	0xbf078d3f	-0.529499
13	0xbf7f196b	-0.9964816
14	0x3ddb25ba	0.10700555
15	0xbe1b3c64	-0.15159756
16	0xbed4d52e	-0.41568893
17	0xbec3ee90	-0.38267946
18	0xbec5ec98	-0.3865707
19	0xbf1f8b4d	-0.6232193
20	0xbec7be03	-0.39012155
21	0xbf169837	-0.5882601
22	0xbf10ec72	-0.56610787
23	0xbeecfdef	-0.46287486
24	0xbf07149c	-0.5276582
25	0xbf323053	-0.69604987

conv.1.running_mean f4 [26]
0	0xc35d94c4	-221.58112
1	0xc3229219	-162.5707
2	0x42bcc8cf	94.392204
3	0x44336a06	717.6566
4	0xc4235c1b	-653.43915
5	0x438bae21	279.36038
6	0x43179716	151.59018
7	0x4383ae20	263.36035
8	0xc3788150	-248.50513
9	0x43c6421b	396.51645
10	0xc30eb9af	-142.72533
11	0x4362f903	226.9727
12	0x4428f171	675.7725
13	0x43559b4f	213.60667
14	0xc41a29f1	-616.65533
15	0xc39be316	-311.7741
16	0x4402597c	521.3982
17	0x440ad52c	555.3308
18	0xc3847d99	-264.98123
19	0x441a3b60	616.92773
20	0x439f6a6c	318.83142
21	0x44129d81	586.461
22	0x43c46146	392.75995
23	0x440b1feb	556.4987
24	0x43ade73a	347.80646
25	0x43affa09	351.9534

conv.1.running_var f4 [26]
0	0x456edb8d	3821.722
1	0x452b5ca0	2741.789
2	0x4585ec38	4285.5273
3	0x459c0ed8	4993.8555
4	0x4535f078	2911.0293
5	0x45505516	3333.3179
6	0x457f69ad	4086.6047
7	0x4548c71e	3212.4448
8	0x45f8bec0	7959.8438
9	0x45d391a8	6770.207
10	0x45bbc153	6008.1655
11	0x45601e2c	3585.8857
12	0x4582ee56	4189.792
13	0x45a29ea4	5203.83
14	0x45c6f7b5	6366.9634
15	0x459ec815	5081.0103
16	0x4583280e	4197.007
17	0x460303ef	8384.983
18	0x4593c2c1	4728.344
19	0x45362ac3	2914.6726
20	0x457abb72	4011.7153
21	0x457f2338	4082.2012
22	0x45c122a2	6180.329
23	0x45b80f65	5889.9243
24	0x45846959	4237.1685
25	0x459cb4f8	5014.621

RNN1.weight_ih_l0 f4 [48, 26]
0	0x3f24e2b7	0.6440844
1	0xbe539e82	-0.20665935
2	0x3dea29be	0.11433743
3	0x3eb75eda	0.35814553
4	0x3ebd4cc4	0.3697263
5	0x3e573751	0.21017195
6	0x3f15cd73	0.58516616
7	0xbccae93c	-0.024769418
8	0x3f667849	0.9002729
9	0x3e1405f9	0.14455403
10	0x3ece5d78	0.40305686
11	0xbd8a4325	-0.06751088
12	0x3e8a9399	0.27065733
13	0x3f30df3b	0.6909062
14	0x3f1e0776	0.61730134
15	0x3f7ab3d1	0.9793063
16	0x3f0e7344	0.5564463
17	0x3f24130c	0.64091563
18	0x3e8b8d5d	0.2725629
19	0xbd06052c	-0.032719776
20	0x3f56f16d	0.83962137
21	0x3ef22076	0.4729039
22	0x3e4b3220	0.1984334
23	0x3ee94e63	0.45567617
24	0x3e2b8bad	0.16752501
25	0x3e58f72e	0.21188042
26	0x3e8ba4ec	0.27274263
27	0x3dc44c8a	0.09584911
28	0x3da909f6	0.08253853
29	0x3eb405f9	0.35160807
30	0x3e9589a6	0.2920658
31	0x3deecadc	0.11659786
32	0x3ed66f0f	0.41881606
33	0x3ecd1245	0.40053
34	0x3d340afb	0.043955784
35	0x3f59841e	0.8496722
36	0x3d753f3f	0.05987477
37	0x3dfc39e7	0.123157315
38	0x3ee1368b	0.43986925
39	0x3bea45db	0.0071494407
40	0x3dc601c7	0.09668308
41	0x3ef83bfa	0.48483258
42	0x3ec6cbfc	0.38827503
43	0x3f47c6ee	0.7803792
44	0x3df9de3f	0.12200593
45	0x3e123d7c	0.14281267
46	0x3e2d84c9	0.16945185
47	0x3e315113	0.17316084
48	0x3f348895	0.7052091
49	0x3e3a2059	0.18176402
50	0x3eea6e22	0.4578715
51	0x3e69604d	0.22790642
52	0x3efd42bc	0.49464977
53	0xbe4ac107	-0.19800197
54	0xbd73516f	-0.059403833
55	0xbe56f99a	-0.20993653
56	0x3ded13b2	0.11576022
57	0x3e973312	0.2953115
58	0xbf6a7677	-0.91587013
59	0xbed0faa4	-0.40816224
60	0xbe4d2a63	-0.200357
61	0xbeabd92c	-0.33564126
62	0xbe970e1e	-0.29502958
63	0xbe2dfae2	-0.16990235
64	0xbdc8d4d6	-0.0980622
65	0xbee3e53e	-0.44510835
66	0xbc7022be	-0.014656721
67	0x3e550dac	0.20805997
68	0xbe7af813	-0.24508695
69	0xbf6166f1	-0.880477
70	0xbf045e6e	-0.5170659
71	0xbf44b083	-0.76831836
72	0x3e9b9d8e	0.30393642
73	0x3daf9705	0.085737266
74	0xbf27e4ff	-0.65583795
75	0xbd8e9c9c	-0.069634646
76	0x3e54515b	0.2073416
77	0xbd513b11	-0.05108172
78	0x3f1f2e82	0.6218034
79	0x3f4362a2	0.76322377
80	0x3d4b66d1	0.0496586
81	0xbe6c1959	-0.23056544
82	0x3eb930a1	0.36169913
83	0xbea835de	-0.32853597
84	0x3da5af6a	0.08090098
85	0xbe6bef89	-0.23040594
86	0x3f0994c0	0.537426
87	0x3eb7322a	0.3578046
88	0x3f4851a3	0.7824957
89	0xbe1d71f0	-0.15375495
90	0x3ef47927	0.47748682
91	0x3ea9bb75	0.3315083
92	0x3e2bdbfd	0.16783138
93	0xbe3be79a	-0.18350068
94	0xbead9cce	-0.33908695
95	0x3e663303	0.22480397
96	0x3ef3fe04	0.47654736
97	0xbd3bb826	-0.045829915
98	0xbf46b970	-0.77626705
99	0xbe00224e	-0.12513086
100	0x3e3980a0	0.18115473
101	0x3e2fa0cf	0.17151187
102	0xbe23ebf7	-0.16007982
103	0xbead4265	-0.33839718
104	0x3f6f6deb	0.93527097
105	0x3dbe7dfb	0.093013726
106	0x3f014598	0.50496817
107	0x3eba20e6	0.36353225
108	0x3ecd9ecf	0.40160224
109	0x3ec822f3	0.39089164
110	0xbf131f99	-0.5747009
111	0x3e6c6f36	0.23089299
112	0xbd1c1168	-0.038102537
113	0x3dfc3b99	0.12316055
114	0x3e758bba	0.23979083
115	0xbeee8751	-0.46587613
116	0x3f1a1fa9	0.6020456
117	0x3f093880	0.5360184
118	0x3ec8b768	0.39202428
119	0xbf8b08ad	-1.0862023
120	0x3e836852	0.25665528
121	0x3eab5a44	0.33467305
122	0x3e365328	0.17805159
123	0xbd8e270f	-0.069410436
124	0x3e4eefe9	0.20208706
125	0x3f8a2e3e	1.0795362
126	0x3ed8692d	0.42267743
127	0x3ebaa6f6	0.36455506
128	0x3e8d2ebd	0.2757472
129	0x3e68f718	0.22750509
130	0x3bd650ee	0.0065404093
131	0x3ef160e5	0.47144237
132	0x3f86391a	1.0486176
133	0x3f0d3bfe	0.55169666
134	0xbe2ae09b	-0.16687243
135	0x3f945fd9	1.159175
136	0x3e03d3d8	0.1287378
137	0x3eee0225	0.4648601
138	0xbe0e2cf0	-0.1388433
139	0x3f0de914	0.55433774
140	0x3de147b9	0.11000008
141	0x3f31a872	0.6939765
142	0x3f80a483	1.0050205
143	0x3f542c00	0.8287964
144	0xbedf2bf2	-0.43588215
145	0xbf388289	-0.7207418
146	0x3f7a3a62	0.97745335
147	0x3fe9921a	1.8247712
148	0xbf1a6488	-0.6030965
149	0x3f9f9fb0	1.2470608
150	0x3f301646	0.68783987
151	0x3fa5bc14	1.2948022
152	0x3fd48262	1.660229
153	0x3fcb1946	1.5867088
154	0x3f97aff3	1.185057
155	0x3f88e693	1.0695366
156	0x3d941ecf	0.07232439
157	0xbf070a1a	-0.5274979
158	0xbc7789b3	-0.015108514
159	0x3e0ee5c4	0.13954836
160	0xbe0612a2	-0.13093045
161	0x3ea1867a	0.3154791
162	0xbd0fd1fd	-0.03511237
163	0x3ec87298	0.39149928
164	0x3ebefb02	0.3730088
165	0x3e74e6c4	0.23916155
166	0x3de65139	0.11245961
167	0x3e83d5c5	0.2574903
168	0x3ef19420	0.47183323
169	0x3ed642fc	0.4184798
170	0x3ed9169f	0.4240007
171	0xbf181101	-0.59400946
172	0x3e563434	0.20918351
173	0x3eab15d2	0.33415085
174	0x3f1cd9b5	0.61269695
175	0xbf4d7c5c	-0.8026788
176	0x3ebcb933	0.36860046
177	0x3f0d58ad	0.55213434
178	0xbf0e08c2	-0.55482113
179	0x3db47ff0	0.08813465
180	0x3f66f2ab	0.9021403
181	0x3f1a4647	0.60263485
182	0x3ebd1116	0.36927098
183	0x3ec48850	0.38385248
184	0x3ed34d0c	0.4126972
185	0xbed8e018	-0.4235847
186	0x3e2b844e	0.16749689
187	0x3f011f14	0.50438046
188	0x3eb4bac8	0.35298753
189	0x3ef6ea89	0.4822581
190	0x3e9e7e04	0.30955517
191	0x3e8de06f	0.27710292
192	0x3f7efb21	0.9960194
193	0x3e73c05d	0.2380385
194	0x3f16c7b3	0.58898467
195	0x3ecaf9f3	0.3964382
196	0x3e3f09be	0.1865606
197	0x3e635305	0.22199638
198	0x3e349d09	0.17638029
199	0x3f27ce38	0.6554904
200	0x3d8dc893	0.06923022
201	0x3f16fc54	0.5897877
202	0x3e88743b	0.26651177
203	0x3e16fbe4	0.14744526
204	0x3f4052d4	0.75126386
205	0x3d2c14d2	0.042012043
206	0x3e99ba00	0.3002472
207	0x3d645612	0.055746146
208	0x3f30b196	0.69020975
209	0xbf0137d9	-0.5047584
210	0x3f24be25	0.6435264
211	0x3d2077f0	0.03917688
212	0xbee23605	-0.4418184
213	0x3f05d841	0.522831
214	0xbdea2805	-0.11433414
215	0x3f19e47f	0.6011428
216	0xbf3a7104	-0.728287
217	0x3f32d212	0.6985179
218	0xbf4b609c	-0.7944429
219	0x3f432f7e	0.7624434
220	0xbd5a6b82	-0.053325184
221	0x3e06da61	0.13169242
222	0xbf69970c	-0.91246104
223	0xbf3ded23	-0.74189967
224	0x3eb7be74	0.35887492
225	0x3e6c6888	0.2308675
226	0xbf0a0f75	-0.53929836
227	0xbf0ad2fd	-0.5422819
228	0x3f1d1257	0.6135611
229	0x3f186205	0.59524566
230	0x3dc0a695	0.09406773
231	0x3ec058fc	0.3756789
232	0x3f492f17	0.7858748
233	0x3e6f13a6	0.23347339
234	0x3ec143f1	0.37747148
235	0x3d93ea56	0.072224304
236	0x3e258878	0.1616534
237	0x3e783de9	0.24242367
238	0x3e5ea98d	0.21744366
239	0x3f79b72d	0.9754513
240	0x3e7c1e1e	0.24620864
241	0x3e889cb7	0.26682064
242	0xbd1c3edc	-0.038145885
243	0x3ecb0d62	0.39658648
244	0x3e862ec2	0.26207548
245	0x3f44c767	0.76866764
246	0x3f13dac5	0.5775569
247	0x3ed37e04	0.4130708
248	0x3e6e1d28	0.2325331
249	0x3e4c94c8	0.1997863
250	0x3f27223e	0.65286624
251	0x3f5a75af	0.8533582
252	0xbba2cab8	-0.0049680136
253	0x3f05e7f2	0.52307045
254	0x3f17bce4	0.592726
255	0x3f9053e3	1.12756

RNN1.weight_hh_l0 f4 [48, 16]
0	0xbc53e952	-0.012934046
1	0x3c6aaa22	0.014322789
2	0xbefec149	-0.4975684
3	0xbe339f1c	-0.17541164
4	0x3e085c79	0.13316526
5	0xbf2a55b0	-0.66537
6	0xbd895339	-0.067053266
7	0x3e05d308	0.13068783
8	0x3db1a946	0.086748645
9	0xbccf085c	-0.02527254
10	0xbd700f21	-0.058608178
11	0xbedad781	-0.4274254
12	0x3daad1d1	0.083408006
13	0x3e91c43a	0.2847002
14	0xbe185105	-0.14874656
15	0xbd18852f	-0.03723639
16	0xbe9da003	-0.30786142
17	0xbc59eeee	-0.013301594
18	0xbd6d3db4	-0.057920173
19	0x3f25ada3	0.64718074
20	0xbef934ce	-0.486731
21	0xbf1cc827	-0.6124291
22	0xbe098cc0	-0.13432598
23	0xbee08f70	-0.43859434
24	0x3f156c55	0.58368427
25	0x3ed62aac	0.4182943
26	0xbd36e019	-0.04464731
27	0xbf1a9dbd	-0.6039694
28	0x3e91d8ab	0.28485617
29	0xbdaa16dc	-0.08305141
30	0x3f9a9acf	1.2078494
31	0x3ead3c44	0.33835042
32	0x3e9ecdbd	0.3101634
33	0x3ddbac23	0.10726192
34	0xbdcd4dc2	-0.10024597
35	0x3eb48567	0.35258028
36	0xbe9ed8b0	-0.31024694
37	0xbf3b0bed	-0.7306507
38	0xbdd50a04	-0.10402301
39	0x3d8f7f45	0.070066966
40	0x3debcac5	0.115132846
41	0xbe2e286f	-0.17007612
42	0xbf1a62c1	-0.60306937
43	0x3b862f9b	0.0040950305
44	0xbf020376	-0.5078653
45	0x3e64cf4f	0.22344707
46	0xbf800d16	-1.0003994
47	0xbd09f0a4	-0.03367676
48	0xbe2ecafa	-0.17069617
49	0xbe473790	-0.19454789
50	0x3e14b862	0.14523461
51	0x3e5c4579	0.21510877
52	0xbf1383bb	-0.5762288
53	0x3e8cc8fe	0.27497095
54	0x3cdfa5cd	0.02730074
55	0xbe9f2f4a	-0.31090766
56	0x3e0eeb87	0.13957034
57	0xbe567fb5	-0.20947154
58	0x3d53d503	0.051716816
59	0x3e5c82bc	0.21534246
60	0xbdc285b7	-0.0949816
61	0xbc08d1d1	-0.008350805
62	0xbeeb9fe9	-0.4602044
63	0xbd61f8b1	-0.05516881
64	0x3ec9ae9c	0.3939103
65	0xbe46954b	-0.19392888
66	0xbe0e4d8b	-0.13896768
67	0xbeafe5bc	-0.3435496
68	0x3e703cb1	0.23460652
69	0x3f022558	0.5083823
70	0x3dfafb53	0.122549675
71	0xbe6c5810	-0.23080468
72	0x3e85f477	0.26163074
73	0xbe91d7e6	-0.2848503
74	0x3ed41dbc	0.41428936
75	0x3e5b348d	0.21406765
76	0xbf1d1749	-0.61363655
77	0xbf26f7a8	-0.65221643
78	0x3d1c56dc	0.038168773
79	0xbebca385	-0.36843506
80	0x3d222f6b	0.039596003
81	0x3e264f81	0.16241266
82	0xbf1187fb	-0.56848115
83	0x3e12b86d	0.14328165
84	0xbdbd4353	-0.09241357
85	0xbfe97410	-1.8238544
86	0xbea5e480	-0.32400894
87	0x3eb7f053	0.3592554
88	0xbc99fd5d	-0.01879757
89	0x3e8e8efb	0.2784346
90	0xbf001ddc	-0.5004556
91	0x3e126900	0.14297867
92	0xbe549cba	-0.20762911
93	0x3d260855	0.04053529
94	0x3f5365e0	0.82577324
95	0xbed3fcf4	-0.41403925
96	0x3f26abdd	0.6510599
97	0xbe422629	-0.1895987
98	0xbdf80635	-0.12110559
99	0xbe22d52c	-0.15901631
100	0x3e3f28e5	0.18667944
101	0xbc6a884f	-0.014314725
102	0x3d98b59b	0.074565135
103	0x3ec43a5f	0.38325784
104	0x3f057e93	0.5214626
105	0x3db50db4	0.08840504
106	0xbca43074	-0.020042636
107	0xbeaac2f9	-0.33351877
108	0x3cce13ce	0.025155928
109	0x3e6c80da	0.23096028
110	0x3e70f9d9	0.2353281
111	0xbec153f3	-0.3775936
112	0xbe908564	-0.2822677
113	0xbc81271d	-0.015765721
114	0xbece4ee5	-0.40294567
115	0x3e41dfc5	0.18933018
116	0x3f10294b	0.5631301
117	0x3d317e05	0.043333072
118	0x3d179f3e	0.0370171
119	0x3efdebc5	0.4959394
120	0xbe8cdc74	-0.27511942
121	0x3c79b8c6	0.015241807
122	0x3d715d74	0.058927014
123	0x3de273f4	0.110572726
124	0x3d069376	0.032855473
125	0x3ea50bf6	0.32235688
126	0xbb83a604	-0.0040175933
127	0x3df17a9c	0.11790964
128	0x3e092bf4	0.13395673
129	0x3eb09f14	0.34496367
130	0x3e307366	0.17231521
131	0x3e57ceb6	0.21074948
132	0xbe545902	-0.20737079
133	0xbf7f093e	-0.9962348
134	0xbeadf9ce	-0.33979648
135	0x3d277cd4	0.04089053
136	0x3f82251e	1.0167577
137	0x3eb0ac62	0.34506518
138	0xbf120466	-0.5703796
139	0xbeac0741	-0.33599284
140	0xbe752b32	-0.23942259
141	0x3eeee399	0.46658018
142	0x3d9307fd	0.07179258
143	0xbe877b84	-0.26461422
144	0xbd09950c	-0.033589408
145	0x3e662cf9	0.22478093
146	0x3e046c17	0.12931858
147	0xbc48ee35	-0.012263824
148	0x3d9434cb	0.07236632
149	0x3ca27c7a	0.019834746
150	0xbe77f036	-0.24212727
151	0xbea4f3c4	-0.32217228
152	0x3e1685eb	0.14699523
153	0x3d5770f2	0.052597947
154	0x3d528983	0.051400673
155	0xbce036b1	-0.027369829
156	0x3e4beb14	0.19913894
157	0xbe1d50d4	-0.15362865
158	0x3eac4cff	0.33652493
159	0x3dc11c0e	0.09429179
160	0xbf382a1b	-0.7193925
161	0xbeee1db8	-0.4650705
162	0x3eb5bfe1	0.35497954
163	0x3f05770f	0.52134794
164	0xbeb52097	-0.35376427
165	0xbe1a3db7	-0.15062605
166	0x3f05479c	0.5206239
167	0x3eae061a	0.3398903
168	0x3ecb551f	0.3971338
169	0xbe6e0740	-0.23244953
170	0xbe5160c7	-0.20447074
171	0x3f15d8cc	0.5853393
172	0xbede976e	-0.43474907
173	0x3e2cc2f6	0.16871247
174	0xbf3047e9	-0.68859726
175	0xbed8d8ad	-0.4235281
176	0x3ed1dceb	0.4098886
177	0x3ed4e10c	0.41577947
178	0xbe1410b3	-0.14459495
179	0x3f1f8119	0.6230636
180	0x3e1181d8	0.14209688
181	0x3ed7e9bd	0.42170516
182	0xbea2d7eb	-0.31805357
183	0xbe8653df	-0.26235864
184	0xbf0a04f2	-0.53913796
185	0x3ebdddf2	0.37083393
186	0x3ee4d41c	0.44693077
187	0xbfa655bb	-1.2994913
188	0x3eb56e63	0.3543578
189	0xbe956746	-0.29180354
190	0x3e66c1d4	0.22534877
191	0x3fa0ccef	1.2562541
192	0x3e0b113f	0.13580798
193	0x3df1e8bf	0.11811971
194	0x3e3885a7	0.18019734
195	0x3f2b31db	0.6687295
196	0xbec07596	-0.3758971
197	0xbe54882d	-0.20755072
198	0xbed66574	-0.41874278
199	0x3e9a1f32	0.30101925
200	0x3f1630f2	0.58668435
201	0x3f1f79c1	0.62295157
202	0xbe35353e	-0.17696092
203	0xbeebc79e	-0.46050733
204	0xbdb03655	-0.08604113
205	0x3e96ecb7	0.29477474
206	0x3ee690a0	0.45032215
207	0x3d0a5d6c	0.0337805
208	0x3e9814d5	0.29703394
209	0xbe18f6b1	-0.14937855
210	0xbe98e96e	-0.29865593
211	0x3eb1e265	0.34743038
212	0x3eb53356	0.3539073
213	0xbe0eadd7	-0.13933502
214	0xbe429237	-0.19001089
215	0x3f15a318	0.58451986
216	0xbe692993	-0.22769766
217	0xbeebb665	-0.46037593
218	0xbddb4c44	-0.10707906
219	0xbd7f5efb	-0.06234644
220	0xbdecf8d8	-0.11570901
221	0x3f02f56a	0.5115572
222	0x3d245708	0.040122062
223	0xbc996df8	-0.018729195
224	0xbf0ddf8c	-0.5541923
225	0x3eb98ba6	0.36239356
226	0x3e2ef71e	0.17086455
227	0x3f809617	1.0045804
228	0x3e952116	0.29126805
229	0xbf6f36b2	-0.93442833
230	0x3ee7ec1f	0.45297334
231	0xbee1e962	-0.4412337
232	0x3e41a0e2	0.18909028
233	0xbdc52ab9	-0.09627289
234	0xbef8c21f	-0.48585603
235	0xbeda58d4	-0.42645895
236	0x3e16bc73	0.14720325
237	0xbe5e4ca9	-0.21708931
238	0xbebd917d	-0.3702506
239	0x3f070332	0.5273925
240	0xbcf98454	-0.030458607
241	0x3eee3904	0.46527874
242	0xbe66c178	-0.2253474
243	0x3d077a27	0.033075478
244	0xbea9316a	-0.33045512
245	0xbba01eed	-0.004886499
246	0xbe4119a2	-0.18857434
247	0xbeb4d4aa	-0.353185
248	0xbee03136	-0.43787545
249	0x3e9ff5c2	0.31242186
250	0x3e225162	0.15851358
251	0xbec1cbe9	-0.37850884
252	0x3ea1921a	0.3155678
253	0xbda1e206	-0.07904439
254	0x3f985fc1	1.1904222
255	0x3f4aa1d8	0.79153204

RNN1.bias_ih_l0 f4 [48]
0	0x3ea3bb58	0.3197887
1	0xbe9ed99f	-0.31025407
2	0xbdce367f	-0.10068988
3	0x3d768bc5	0.06019189
4	0x3ec02d08	0.37534356
5	0x3df76408	0.12079626
6	0x3e734160	0.23755407
7	0x3ebb3266	0.36561888
8	0x3df5495e	0.11976884
9	0x3dd5c785	0.10438446
10	0x3d5009bc	0.050790533
11	0xbe55dfdf	-0.20886181
12	0xbd8f7b3e	-0.070059285
13	0x3ec106f0	0.37700605
14	0x3ec47edf	0.38378045
15	0xbec406f8	-0.38286567
16	0x3f214819	0.6300064
17	0x3eb9e47f	0.3630714
18	0xbe04abac	-0.12956113
19	0x3e9c2279	0.3049505
20	0x3e5925e3	0.21205859
21	0x3ef1f5bd	0.47257796
22	0x3ec6e284	0.38844693
23	0x3e915267	0.2838318
24	0x3e56acc5	0.20964344
25	0x3e24fc26	0.16111812
26	0x3f3c4902	0.735489
27	0x3efdb385	0.49551025
28	0x3e6d11f8	0.23151386
29	0x3f14b0a0	0.5808201
30	0x3eb47d6e	0.35251945
31	0x3d9eb660	0.07749629
32	0xbe03f5f6	-0.12886795
33	0x3cb4fbbf	0.022092698
34	0xbea8d89b	-0.32977757
35	0xbe0d0379	-0.13770856
36	0x3ed2fa96	0.41206807
37	0x3ef63755	0.4808909
38	0x3ea70589	0.3262141
39	0xbe26cf0e	-0.16289923
40	0xbe78d3d3	-0.24299555
41	0xbebb18d0	-0.36542368
42	0x3ea415d5	0.32047907
43	0x3e9e6700	0.30937958
44	0xbeb6000b	-0.35546908
45	0xbe567e78	-0.20946681
46	0xbe25b8fa	-0.16183844
47	0xbdec3165	-0.11532859

RNN1.bias_hh_l0 f4 [48]
0	0x3e54ed70	0.207937
1	0xbe7f33fb	-0.24922173
2	0xbe5e3c01	-0.21702577
3	0x3ebfd408	0.37466455
4	0x3e998f86	0.29992312
5	0xbe034644	-0.12819773
6	0x3e822036	0.254152
7	0x3f3e0bb2	0.74236596
8	0xbc12f3af	-0.0089692315
9	0x3e347375	0.17622168
10	0x3e5c6849	0.21524157
11	0xbddd00ad	-0.107911445
12	0xbec18346	-0.37795466
13	0x3ef16462	0.47146899
14	0x3edb0a00	0.42781067
15	0xbe9f2b81	-0.31087878
16	0x3ee6154f	0.44938132
17	0x3f1adc7a	0.6049267
18	0xbd73fc60	-0.059566855
19	0x3ea89edc	0.329337
20	0x3e6afc20	0.2294774
21	0x3f0fc3cf	0.56158155
22	0x3edf90f2	0.43665272
23	0x3f0604e1	0.52351195
24	0x3d1b42f9	0.037905667
25	0x3e2fb14d	0.17157479
26	0x3eb451f2	0.3521877
27	0x3eaf3acc	0.34224546
28	0x3f26bc0d	0.6513069
29	0x3f2d32c2	0.67655575
30	0x3ec5d2aa	0.38637286
31	0x3d9106f4	0.07081404
32	0xbe693527	-0.22774182
33	0xbe569bc9	-0.20957865
34	0x3e801b65	0.250209
35	0xbde843a8	-0.113410294
36	0x3ea768ad	0.3269705
37	0xbcd05b20	-0.025434077
38	0x3deeaf98	0.116545856
39	0xbe99bd02	-0.30027014
40	0xbd9c822e	-0.07642017
41	0xbdff0c1e	-0.12453483
42	0x3d402704	0.04691221
43	0x3e3c5859	0.18393077
44	0x3cd2ee3c	0.025748365
45	0xbf0bfbec	-0.5468128
46	0x3dc08f56	0.09402339
47	0xbe85b3f8	-0.26113868

batchNorm.weight f4 [16]
0	0x3f4143f8	0.7549434
1	0x3f58d003	0.846924
2	0x3f401c4b	0.7504317
3	0x3f60a414	0.87750363
4	0x3f3e710d	0.7439125
5	0x3f461640	0.773777
6	0x3f4c1b76	0.797294
7	0x3f64ac7c	0.8932569
8	0x3f2b9b33	0.6703369
9	0x3f654feb	0.8957507
10	0x3f45bfb4	0.7724564
11	0x3f3e1151	0.7424517
12	0x3f5a37f1	0.8524161
13	0x3f498a72	0.78726876
14	0x3f67183f	0.9027137
15	0x3f6bb976	0.92079866

batchNorm.bias f4 [16]
0	0xbea5c62a	-0.3237775
1	0x3ec7d66c	0.39030778
2	0xbeaf3f3c	-0.34227931
3	0xbec91309	-0.39272335
4	0xbeb0e790	-0.34551668
5	0xbeb1b507	-0.34708425
6	0xbebe9884	-0.37225735
7	0xbec30979	-0.38093165
8	0xbea13f51	-0.3149362
9	0xbed015d3	-0.4064165
10	0xbeb16cc3	-0.3465329
11	0xbeab93cf	-0.33511207
12	0xbeca90d1	-0.3956361
13	0xbeb1fa2d	-0.3476118
14	0xbecff6d3	-0.40618
15	0xbed4ce57	-0.41563675

batchNorm.running_mean f4 [16]
0	0xbf109962	-0.56484044
1	0x3e2d14ba	0.16902438
2	0xbea5e4c5	-0.324011
3	0xbf0fa54b	-0.5611159
4	0x3d938c37	0.07204478
5	0xbe1836e4	-0.14864689
6	0xbd6857b4	-0.056724265
7	0xbee19925	-0.44062153
8	0xbef3f5bf	-0.47648427
9	0xbf210243	-0.62894076
10	0xbd5a7990	-0.053338587
11	0xbd00308d	-0.0312963
12	0xbed65b3e	-0.41866487
13	0xbed7d6e7	-0.42156145
14	0xbe94d64a	-0.2906974
15	0xbedf22cd	-0.43581238

batchNorm.running_var f4 [16]
0	0x40147637	2.3197153
1	0x3f87a9fa	1.0598748
2	0x3f8e2e84	1.1107945
3	0x4018d6d8	2.388113
4	0x40245aa5	2.5680325
5	0x3fad4cb1	1.3539029
6	0x4014d426	2.3254485
7	0x4005a956	2.0884604
8	0x3fda5d1d	1.7059666
9	0x401bfac0	2.4371796
10	0x4008525c	2.1300268
11	0x3fb7145a	1.4303086
12	0x3faebe8e	1.3651903
13	0x40026f6c	2.0380507
14	0x3f6d6897	0.92737716
15	0x3faae1eb	1.3350195

RNN2.weight_ih_l0 f4 [48, 16]
0	0xbf790baf	-0.9728345
1	0x3e01b8d1	0.12668158
2	0x3c721962	0.01477656
3	0xbf378025	-0.7167991
4	0x3e360e7f	0.17778967
5	0xbed9dccc	-0.42551267
6	0x3e52619a	0.20545045
7	0xbf720411	-0.94537455
8	0xbdbb72d2	-0.091527596
9	0xbd756eb9	-0.059920046
10	0xbeb14b76	-0.34627885
11	0x3e87cc8c	0.26523244
12	0xbe2ac458	-0.16676462
13	0xbef11813	-0.4708868
14	0xbdb330a9	-0.087495156
15	0xbeea5867	-0.4577057
16	0x3c89ff1b	0.016845277
17	0x3e52ab38	0.20573127
18	0xbe82fe1c	-0.25584495
19	0x3f921378	1.1412191
20	0xbf15dcca	-0.5854002
21	0xbdd0014a	-0.10156496
22	0xbea8bbc5	-0.32955757
23	0x3de32d97	0.1109268
24	0xbdd4ab6f	-0.10384261
25	0xbe40b17f	-0.1881771
26	0xbeef1e01	-0.4670258
27	0xbf2c94ba	-0.6741444
28	0xbccf3a0a	-0.02529623
29	0x3c97faba	0.018552173
30	0xbea704fc	-0.3262099
31	0x3f1427ae	0.57873046
32	0xbeb0736d	-0.34463063
33	0x3ea3153b	0.31852135
34	0xbe694339	-0.2277955
35	0xbf4244ab	-0.7588603
36	0x3ec3c2f4	0.38234675
37	0x3d2a9b24	0.04165186
38	0xbe85d3e0	-0.2613821
39	0xbf536539	-0.8257633
40	0xbe9d0eb4	-0.3067528
41	0x3ebee8aa	0.37286884
42	0x3e9efeca	0.31053764
43	0xbd76374d	-0.060111333
44	0x3e082d17	0.1329845
45	0xbf247d2f	-0.64253515
46	0x3ed5926f	0.41713282
47	0x3db508a1	0.088395365
48	0xbf239deb	-0.6391284
49	0x3eaf8970	0.34284544
50	0xbf02a239	-0.5102878
51	0xbf4301c8	-0.7617459
52	0xbe394746	-0.18093595
53	0xbe2b14ee	-0.16707203
54	0xbeed1619	-0.46305922
55	0xbf6e2c97	-0.9303679
56	0xbe1fa533	-0.15590362
57	0xbdc25220	-0.0948832
58	0xbe4ce8f1	-0.20010735
59	0xbe265c80	-0.16246223
60	0xbe94bfd5	-0.29052606
61	0xbf5e153a	-0.8675114
62	0xbc8af857	-0.01696412
63	0xbe082efc	-0.13299173
64	0xbf831317	-1.0240201
65	0x3e3d2a60	0.18473196
66	0xbec129d0	-0.37727213
67	0xbf6fc277	-0.93656105
68	0x3e7ab876	0.24484429
69	0xbe218223	-0.157723
70	0x3dca558b	0.09879597
71	0xbf9b5e60	-1.2138176
72	0xbde4cbe8	-0.111717045
73	0x3e8fe2ae	0.2810263
74	0x3e5b7a6f	0.21433423
75	0x3dd33236	0.10312311
76	0x3e089ea9	0.13341774
77	0xbf7766c9	-0.9664121
78	0x3e88581a	0.26629716
79	0xbdfa8211	-0.122318394
80	0xbe67f8f0	-0.22653556
81	0x3f06f9ca	0.527249
82	0xbe100af0	-0.14066672
83	0xbe24798a	-0.16061988
84	0xbef6e00e	-0.48217815
85	0xbed14717	-0.4087455
86	0xbef0afbd	-0.47009078
87	0xbe320568	-0.17384875
88	0xbe069ff1	-0.1314695
89	0xbe66053c	-0.22462934
90	0xbf29e8b2	-0.6637069
91	0xbf13813e	-0.5761908
92	0xbeb76efd	-0.35826865
93	0xbe80c23b	-0.25148186
94	0xbe51cc0d	-0.20487995
95	0xbcc6ee9b	-0.024283698
96	0x3e4aa990	0.19791245
97	0x3ec2b204	0.3802644
98	0xbe8d60d6	-0.27612942
99	0x3e8fd285	0.280903
100	0xbf06759d	-0.52523214
101	0x3d3f0325	0.04663386
102	0xbee19167	-0.44056246
103	0xbcd7d32e	-0.026345816
104	0xbe0f61c3	-0.14002137
105	0xbf026587	-0.5093617
106	0xbe8603c9	-0.26174763
107	0xbf205077	-0.6262278
108	0x3ddf5ce0	0.109063864
109	0x3e67b74e	0.22628519
110	0x3de23f7a	0.110472634
111	0x3e2f7613	0.17134885
112	0xbec9f100	-0.3944168
113	0x3eb29d63	0.34885702
114	0xbe5489b7	-0.20755659
115	0xbe6c0b53	-0.23051195
116	0xbe682f9a	-0.22674409
117	0xbe6223fa	-0.22084036
118	0xbe8cf273	-0.27528724
119	0xbef26db7	-0.4734933
120	0xbdbabef0	-0.0911845
121	0x3d7b128d	0.06129699
122	0x3d09d9a1	0.033654813
123	0xbe94b595	-0.29044786
124	0xbe04fcbb	-0.12987034
125	0xbd9fb3a8	-0.077979386
126	0x3e79d65d	0.2439818
127	0xbe69659d	-0.22792669
128	0xbef047bf	-0.46929738
129	0x3ef1eb35	0.4724976
130	0xbee8f02d	-0.4549574
131	0xbf14b7b5	-0.58092815
132	0x3e2f1fda	0.17101994
133	0xbc64cb2a	-0.013964454
134	0xbe7f1344	-0.24909693
135	0xbf554cf1	-0.8332053
136	0xbef51d73	-0.4787403
137	0x3e0c13e8	0.13679469
138	0xbdd7ab59	-0.10530729
139	0xbe8d14cf	-0.27554938
140	0x3e320fb6	0.17388806
141	0xbed45b8d	-0.41476098
142	0x3ea236ae	0.31682342
143	0xbd3706c8	-0.0446842
144	0xbf1edfbf	-0.6206016
145	0x3c898f55	0.016791979
146	0xbeac3be3	-0.3363944
147	0xbf1191c1	-0.5686303
148	0xbed568c5	-0.41681495
149	0xbea1be19	-0.31590346
150	0xbeb8127a	-0.35951596
151	0xbf060a37	-0.52359337
152	0xbea206d2	-0.31645828
153	0xbeef8ea9	-0.4678853
154	0xbe96662d	-0.2937483
155	0xbed6f17c	-0.41981113
156	0xbf06c4dd	-0.5264414
157	0xbf45025c	-0.76956725
158	0xbe97ae3b	-0.29625115
159	0xbe7cb84b	-0.24679677
160	0xbf0e09db	-0.5548379
161	0x3e333adf	0.17502926
162	0xbe0dc054	-0.13842899
163	0xbe0651a7	-0.13117085
164	0xbc9acfe5	-0.01889796
165	0xbe9e4497	-0.30911705
166	0xbe9aabde	-0.3020925
167	0xbf159126	-0.58424604
168	0x3ccebf2d	0.025237644
169	0x3d8d1b07	0.06889921
170	0xbe89e838	-0.2693498
171	0xbe4fac04	-0.20280463
172	0xbe1d7608	-0.15377057
173	0xbeb41997	-0.35175774
174	0xbdf2aeec	-0.1184977
175	0xbe7e9030	-0.2485969
176	0xbea068a2	-0.31329829
177	0x3e61f65b	0.22066633
178	0xbe12f74b	-0.14352147
179	0x3ec83f7d	0.39110938
180	0xbf1e0b1c	-0.617357
181	0xbe8d56a6	-0.2760517
182	0xbef1d58f	-0.47233245
183	0x3cf7d30d	0.030252004
184	0x3ddbdebf	0.10735845
185	0x3ea6fe90	0.3261609
186	0xbf6c0356	-0.9219259
187	0xbea3b240	-0.3197193
188	0x3ea57324	0.32314408
189	0x3cb5b23a	0.022179712
190	0xbcfd009f	-0.030884085
191	0x3e12e05d	0.143434
192	0xbf790235	-0.9726899
193	0x3e3483c2	0.17628387
194	0xbecdb671	-0.40178254
195	0xbf923c38	-1.1424627
196	0x3f0c1cee	0.54731643
197	0xbdcbae68	-0.09945375
198	0x3dd6dcda	0.10491343
199	0xbf8a5332	-1.0806639
200	0xbc16e6b2	-0.0092102755
201	0x3ed45dca	0.41477805
202	0x3edbcb0c	0.4292835
203	0xbe1c259c	-0.15248722
204	0x3e682f7d	0.22674365
205	0xbf52e3cd	-0.82378846
206	0x3ee3264c	0.44365156
207	0xbd505580	-0.05086279
208	0x3db3a85e	0.08772348
209	0x3eb58710	0.35454607
210	0xbea33615	-0.318772
211	0x3e51c712	0.20486096
212	0xbe9d37a6	-0.3070652
213	0xbe80272d	-0.2502989
214	0xbef3aae8	-0.4759133
215	0x3ddd90f7	0.108186655
216	0xbe8ddb51	-0.27706388
217	0x3d395411	0.045246188
218	0xbf09da0f	-0.53848356
219	0xbeaa3b99	-0.33248594
220	0x3e3e6dd4	0.18596584
221	0x3e4f3e66	0.20238647
222	0xbd71bf4a	-0.059020318
223	0xbc4e9380	-0.012608409
224	0xbdb21d3d	-0.08696983
225	0x3d725f0f	0.059172686
226	0xbe835909	-0.25653866
227	0xbc37c4a9	-0.011216321
228	0xbed1efeb	-0.41003355
229	0xbdd8b733	-0.105818175
230	0xbf060f77	-0.5236735
231	0xbf0a8208	-0.5410466
232	0xbde16e4b	-0.11007365
233	0xbd8cdd91	-0.06878198
234	0xbf2c36eb	-0.672713
235	0xbe5e61c3	-0.2171698
236	0xbe9d40bd	-0.30713454
237	0xbed1cf78	-0.409786
238	0xbe912654	-0.28349555
239	0xbe54fa2a	-0.20798555
240	0xbe05022d	-0.12989111
241	0x3e2afaef	0.16697286
242	0xbe58f366	-0.21186599
243	0x3e7a8de8	0.24468195
244	0xbe88340f	-0.26602218
245	0xbe967d4e	-0.29392475
246	0xbeca615c	-0.39527404
247	0x3c8f364a	0.017481942
248	0xbf024468	-0.5088563
249	0xbe2015cc	-0.15633315
250	0xbe9f85ee	-0.31156868
251	0xbe8468ec	-0.258613
252	0xbd921e5d	-0.071346976
253	0xbe0372f2	-0.12836817
254	0xbec155d9	-0.3776081
255	0x3e2aa4b1	0.16664387

RNN2.weight_hh_l0 f4 [48, 16]
0	0x3e8eaf20	0.27867985
1	0xbe660700	-0.22463608
2	0x3e6265d0	0.22109151
3	0x3efaff56	0.4902293
4	0x3f06e425	0.5269187
5	0x3ec2d16d	0.38050404
6	0x3f0538ff	0.52040094
7	0x3eae4c7c	0.34042728
8	0x3e632749	0.22182955
9	0x3d059ac1	0.032618288
10	0x3e03285e	0.12808368
11	0x3eac9a83	0.33711633
12	0xbe58d013	-0.21173124
13	0x3f1c700c	0.6110847
14	0x3d71cb99	0.059032056
15	0xbdbc59db	-0.09196826
16	0xbe14a20e	-0.14514944
17	0x3e5ad81a	0.21371499
18	0x3ebfa598	0.37431026
19	0x3e97bcbf	0.2963619
20	0x3e4970d4	0.19671947
21	0x3e225727	0.15853558
22	0xbdb6b02e	-0.08920322
23	0x3d940dc7	0.0722919
24	0x3e287fbc	0.16454977
25	0x3e8e4ede	0.27794546
26	0xbde71875	-0.11283962
27	0x3a3f00d8	0.00072861975
28	0x3e64d53d	0.22346969
29	0x3d481c4c	0.04885511
30	0x3cf12f89	0.029441612
31	0x3eb76c9c	0.3582505
32	0x3e8d80d2	0.27637345
33	0x3eaeb11a	0.34119493
34	0x3cd78375	0.0263078
35	0x3ecd51ed	0.40101567
36	0x3e7fd5a3	0.2498384
37	0x3eac24ea	0.33621913
38	0xbefcdc90	-0.49387026
39	0x3ed1fdaf	0.41013858
40	0x3e8ed7bb	0.27898964
41	0x3dfeed7a	0.12447639
42	0x3ebeea97	0.37288353
43	0x3f2e2a0c	0.6803291
44	0x3f047820	0.51745796
45	0x3de10e84	0.10989097
46	0x3e1887f2	0.14895609
47	0x3e3f37ec	0.18673676
48	0x3e859720	0.26091862
49	0xbe1f2001	-0.15539552
50	0x3d0dfa55	0.034662563
51	0x3f082344	0.5317881
52	0x3eb5fa9f	0.3554277
53	0x3d02e8c6	0.03196027
54	0xbe93dd0e	-0.2887959
55	0x3dce6c50	0.10079253
56	0x3d318e5f	0.043348666
57	0x3e53d53e	0.20686814
58	0x3d17e3a1	0.03708232
59	0x3e2f9766	0.17147598
60	0x3e588d01	0.21147539
61	0x3e02bb92	0.12766865
62	0xbc2d4771	-0.010576115
63	0x3e54927b	0.20759003
64	0xbd3285a6	-0.04358449
65	0x3e1efb67	0.1552559
66	0x3c9cef2e	0.019157019
67	0x3f4aa052	0.7915088
68	0x3ec6692d	0.38752118
69	0x3dd6a205	0.104801215
70	0x3e67a18d	0.2262022
71	0x3f0d7967	0.5526337
72	0x3ec7bc72	0.3901096
73	0x3ee07bc3	0.43844423
74	0xbdf36a88	-0.118855536
75	0x3ec431ef	0.38319346
76	0x3e11706a	0.14203039
77	0x3e63b58f	0.22237228
78	0x3d47dfd5	0.048797447
79	0xbed4b106	-0.41541308
80	0x3ca00563	0.019533819
81	0x3ca2041a	0.019777346
82	0xbd6f3f26	-0.058409832
83	0x3ea83c01	0.3285828
84	0xbd7088a0	-0.058724046
85	0xbd8b4a59	-0.0680129
86	0xbd937419	-0.07199878
87	0x3e15be37	0.14623342
88	0xbdf6e868	-0.12056047
89	0x3d644823	0.055732857
90	0x3e1d2033	0.15344314
91	0xbe3916bc	-0.18075079
92	0xbe29adc5	-0.16570194
93	0x3eb8ba93	0.36079845
94	0x3d092926	0.033486508
95	0x3ed19c03	0.4093934
96	0xbdcc9b49	-0.09990556
97	0x3d94acae	0.072594985
98	0x3f002973	0.50063246
99	0x3ec97b5e	0.39351934
100	0x3ea8f0ff	0.32996365
101	0x3d573869	0.05254403
102	0xbeb699bf	-0.35664174
103	0x3d557263	0.05211104
104	0x3e6efa4a	0.23337665
105	0xbdb20764	-0.08692816
106	0x3eb36b56	0.35042828
107	0x3d866230	0.065616965
108	0x3f0c7d06	0.5487827
109	0xbd48baba	-0.0490062
110	0x3e96d77b	0.29461274
111	0xbe2ef7b2	-0.17086676
112	0x3e82219b	0.25416264
113	0x3e80f7d2	0.25189072
114	0x3f0a1f70	0.5395422
115	0xbd025a45	-0.03182437
116	0x3c10cc96	0.00883784
117	0x3edf32cf	0.4359345
118	0xbe3cf5b1	-0.18453099
119	0x3e8266c7	0.25469038
120	0x3ebea71b	0.37236866
121	0x3eaad975	0.33369032
122	0x3e471e9b	0.19445269
123	0x3ee1ed83	0.4412652
124	0x3ec64366	0.38723296
125	0x3de66bfb	0.112510644
126	0xbd844ce3	-0.064599775
127	0xbe50460a	-0.20339218
128	0x3e4b4319	0.19849814
129	0x3c83a748	0.016070977
130	0x3eeaba7d	0.45845404
131	0x3ddd5ad9	0.108083434
132	0x3f257dd2	0.6464511
133	0xbe94fb9b	-0.2909821
134	0xbe424b64	-0.18974072
135	0x3e862fb7	0.2620828
136	0x3ee0ada1	0.43882468
137	0xbe7bf160	-0.24603796
138	0xbdcdd9c0	-0.10051298
139	0x3ee9c813	0.45660457
140	0x3ee4e9b5	0.44709554
141	0x3e560b8f	0.20902847
142	0xbd305128	-0.043046147
143	0xbed74e44	-0.420519
144	0x3db1254d	0.08649693
145	0x3ed215f3	0.4103237
146	0x3e97947e	0.29605478
147	0x3eebc9de	0.4605245
148	0x3e3648d1	0.17801215
149	0x3e10c272	0.14136675
150	0xbe2ed8fc	-0.1707496
151	0x3daa1a04	0.08305743
152	0x3e1deaf4	0.15421659
153	0x3d040ba3	0.03223766
154	0xbc9da133	-0.019241905
155	0x3e2e2e35	0.17009814
156	0x3f084ade	0.5323924
157	0x3e41777e	0.18893239
158	0xbdd5895c	-0.1042659
159	0xbe2d940b	-0.16951005
160	0x3d91fa80	0.07127857
161	0x3e078297	0.1323341
162	0x3dbf73c3	0.09348252
163	0x3d9f8f47	0.07791
164	0x3e3cafa1	0.18426372
165	0x3ea67530	0.32511282
166	0xbe32771d	-0.1742825
167	0x3ec38c33	0.381929
168	0x3e541abe	0.20713326
169	0x3e54e3a5	0.20789964
170	0x3e462183	0.19348721
171	0x3f23962d	0.63901025
172	0x3e896272	0.2683292
173	0xbd4d3570	-0.05009979
174	0x3e5843b8	0.21119583
175	0xbbe144a8	-0.0068746395
176	0xbe82df83	-0.2556115
177	0x3eeafabb	0.45894417
178	0x3e0b80d4	0.13623363
179	0x3f2d3960	0.6766567
180	0x3cf9fb8d	0.030515457
181	0xbdddc406	-0.10828404
182	0xbef401b6	-0.47657555
183	0x3d8dc965	0.069231786
184	0xbdfb2f13	-0.12264838
185	0x3d878567	0.06617241
186	0xbe08da4e	-0.13364527
187	0xbe044ec3	-0.1292067
188	0x3e35da73	0.17759113
189	0x3e958215	0.29200807
190	0xbebc105b	-0.36731228
191	0xbecf0ae8	-0.40438008
192	0x3e7fcf66	0.2498146
193	0xbdf2c727	-0.118543915
194	0x3eba3a6a	0.3637269
195	0x3eec48a5	0.46149173
196	0x3e7b5067	0.2454239
197	0xbdd2d880	-0.102952
198	0x3d8981ee	0.06714235
199	0x3f08dc75	0.5346139
200	0x3ea7fb3f	0.32808873
201	0x3e714e76	0.23565087
202	0x3f039ae2	0.5140821
203	0x3f05200e	0.52002037
204	0x3ea0b1dd	0.313857
205	0xbe8db01e	-0.2767343
206	0x3d9f7611	0.07786191
207	0x3e325db5	0.17418559
208	0xbdbabba0	-0.09117818
209	0x3e4568e3	0.19278292
210	0x3c8317d3	0.016002571
211	0x3e832102	0.2561112
212	0xbdf396c9	-0.11893994
213	0x3d51552a	0.05110661
214	0xbd61d8c1	-0.055138353
215	0x3e9252d3	0.28578815
216	0x3d36ccb5	0.044628818
217	0xbe3b956a	-0.18318716
218	0xbe0e0366	-0.13868484
219	0xbeaf15dc	-0.34196365
220	0x3e35a1f5	0.17737563
221	0x3e987b8d	0.29781762
222	0x3ce0acd9	0.02742617
223	0x3e282790	0.16421342
224	0x3e8e47cf	0.2778916
225	0x3d9f7232	0.07785453
226	0x3e28a05b	0.16467421
227	0x3e75bbb5	0.23997386
228	0xbcb714ad	-0.022348726
229	0x3dd6e13f	0.10492181
230	0xbec5432f	-0.3852782
231	0xbc1ac842	-0.009447159
232	0x3d40caf7	0.047068562
233	0x3ecca886	0.39972323
234	0x3ed0fe17	0.40818855
235	0x3e1fb775	0.15597327
236	0x3e4f001f	0.2021489
237	0x3d10af68	0.03532353
238	0xbe6672d6	-0.22504744
239	0xbddda5ac	-0.10822615
240	0x3ec3815a	0.38184625
241	0x3e1e82f2	0.15479639
242	0x3eb409ee	0.35163826
243	0xbca3afd4	-0.019981302
244	0x3e8588bd	0.26080886
245	0x3dedd779	0.11613364
246	0x3d58ca77	0.05292746
247	0xbe2e0017	-0.16992222
248	0xbdf3f775	-0.11912433
249	0xbceb1720	-0.02869755
250	0x3e6ec2af	0.23316453
251	0x3dfa7302	0.12228967
252	0xbe0ba1d7	-0.13635956
253	0xbb041be5	-0.0020158228
254	0x3e41e88a	0.18936363
255	0x3db1a627	0.08674269

RNN2.bias_ih_l0 f4 [48]
0	0x3ec3ff4f	0.38280722
1	0x3e976101	0.29566196
2	0x3e9df72a	0.30852634
3	0x3f2145db	0.62997216
4	0x3f438c96	0.7638639
5	0x3f1f73d4	0.62286115
6	0x3d46367e	0.04839181
7	0x3e0a6860	0.13516378
8	0x3e2b0cb6	0.16704068
9	0x3f158f51	0.5842181
10	0x3e7b904f	0.24566768
11	0x3e5483bc	0.20753378
12	0x3f003df3	0.50094527
13	0x3f2cd988	0.67519426
14	0xbc9cfcf3	-0.019163584
15	0x3e858644	0.26079
16	0x3ec465ac	0.3835882
17	0x3ea9eb09	0.3318713
18	0x3f02dd0c	0.5111854
19	0x3e22e81c	0.15908855
20	0x3ddb5b9d	0.10710833
21	0x3edcc086	0.43115634
22	0x3e80e528	0.25174832
23	0x3ef922e2	0.48659426
24	0x3f0c2a68	0.54752207
25	0x3e3eaf22	0.18621495
26	0x3eb1f2ce	0.34755558
27	0x3e9b0a8d	0.30281487
28	0x3e254a12	0.16141537
29	0x3e7550a3	0.23956542
30	0x3cb12526	0.021624159
31	0x3eb4ab74	0.35287058
32	0xbe88eb8e	-0.26742214
33	0x3e15f6ae	0.14644882
34	0xbe863b0a	-0.26216918
35	0xbe75cf6f	-0.24004911
36	0xbdc6772b	-0.09690698
37	0xbcb2bd1e	-0.021818694
38	0x3dda7c44	0.10668233
39	0xbdc0c56a	-0.09412654
40	0xbd0ef461	-0.034901027
41	0xbe01eff7	-0.12689196
42	0xbe5a579f	-0.21322487
43	0xbe264b1b	-0.16239588
44	0xbe580197	-0.21094356
45	0x3b4952b9	0.0030719473
46	0xbddd47c2	-0.10804702
47	0xbd8f4952	-0.069964066

RNN2.bias_hh_l0 f4 [48]
0	0x3eea38fd	0.45746604
1	0xbdc4de39	-0.09612698
2	0x3e4a23ab	0.19740169
3	0x3efd0350	0.4941659
4	0x3f426164	0.75929856
5	0x3f1a894e	0.6036576
6	0x3d9b16d6	0.07572715
7	0x3ecf62f0	0.4050517
8	0x3f11b045	0.5690959
9	0x3ea8b62b	0.32951483
10	0x3ea7e3dc	0.3279103
11	0x3ecab4f1	0.39591172
12	0x3f1d9f38	0.61571074
13	0x3ef5196b	0.47870955
14	0x3ea69310	0.32534075
15	0x3e7a14fb	0.24422066
16	0x3e2d83f5	0.16944869
17	0x3e17fb99	0.1484207
18	0x3e3bf98c	0.18356913
19	0x3dfc5ee9	0.1232279
20	0x3e98504e	0.29748768
21	0x3f062fbd	0.5241659
22	0x3ebc569b	0.36784825
23	0x3e6c0bce	0.23051378
24	0x3f053b87	0.52043957
25	0x3e302b2c	0.17203969
26	0x3eddf703	0.43352517
27	0x3e903479	0.28165033
28	0x3ed26885	0.41095367
29	0x3d70df49	0.05880669
30	0x3e6a6b9e	0.22892615
31	0x3e515e07	0.20446025
32	0xbe838799	-0.2568939
33	0x3d8b4fa7	0.06802302
34	0x3ccb667f	0.024829147
35	0xbd8f92c8	-0.07010418
36	0xbe379eea	-0.17931715
37	0xbe70daa2	-0.23520902
38	0xbe5a2adc	-0.21305412
39	0xbdd2f6c1	-0.10300971
40	0xbe576930	-0.2103622
41	0xbd4ccc1a	-0.049999334
42	0xbd1bcf5c	-0.03803955
43	0xbc1eaff0	-0.009685501
44	0xbdad5097	-0.08462637
45	0xbe323275	-0.1740206
46	0xbc98bb7d	-0.018644089
47	0xbe429f2a	-0.19006029

classifier.0.weight f4 [1, 16]
0	0x3efae057	0.48999283
1	0xbef2c9fb	-0.47419724
2	0x3ef7568d	0.4830822
3	0x3ede75b1	0.43449166
4	0x3f0031ff	0.5007629
5	0x3f0a5a8c	0.54044414
6	0x3f0016bb	0.50034684
7	0x3eee14c2	0.46500212
8	0x3f0be0db	0.5463998
9	0x3ef9e95b	0.4881085
10	0x3f07abec	0.52996707
11	0x3f0f3ad6	0.5594915
12	0x3ecdd3f5	0.40200773
13	0x3f09d7b3	0.53844756
14	0x3ee9e1a4	0.45679963
15	0x3eea5b43	0.45772752
